pretrained/models/pretrained_desktop.pt (torch, 23695 bytes, 10 tensors)

batch_norm.weight f8 [100]
0.9816708794512574 0.8546784358220253 1.091480440945121 1.0207645274686985 0.94203025645915 0.9377666985832463 1.0048351937498057 0.9969098780224553
1.0073640933919847 1.0240874685495014 1.0186724309508468 0.9396151442833701 1.0297474894982217 1.0449199428891003 1.0438306309917542 1.05005798529981
1.0448492490572796 1.0138346612779532 0.9765802722576906 0.8925921389385794 0.9051495332651592 0.9287721663396075 0.9355555572706961 0.9418441937027698
0.94145669856753 0.9596504679645009 0.9699135567287811 1.0279877630579048 1.0229764471332339 1.0406732256845688 1.0890070323478676 1.0818376644518384
1.143363775314179 1.1240538898259156 1.1369982102898875 1.214082354731203 1.1992192742913044 1.2328369092987475 1.2315074862692383 1.275565002199085
1.2765952710546717 1.245626094738687 1.2647476645430624 1.2851871130751416 1.3288335971174017 1.302327215883628 1.2979276504758044 1.30610093279787
1.2807426273440023 1.273161794963624 1.3095615335129194 1.288872481148154 1.2685581761022267 1.2434389098715266 1.2428077085657738 1.2301250112378506
1.1973519274896327 1.2208028754571818 1.2395229573440074 1.2210506208112453 1.2340580313141993 1.2289776829539667 1.2012758304720648 1.2122017709117283
1.2017226838257384 1.213283527291208 1.2110398429129738 1.1945126593245623 1.2007580971448149 1.1800208800044298 1.2107228279713178 1.1682166926689637
1.1786415268005008 1.161330043117612 1.159103707933248 1.1318174274069257 1.1005764904991784 1.1091403553237507 1.103811861004749 1.1172816585944698
1.1165991048572768 1.1270388648336618 1.0950465836251932 1.0673533256758219 1.0764365189015128 1.0894110557903796 1.0845196842618132 1.0619892488019949
1.052871049715153 1.0381833618978986 1.040790950109368 1.0211124578835573 1.0152349670096674 1.0062927985859185 0.9632482133501455 0.9463142747060621
0.9380922156302768 0.8874407021829478 0.8882209113862335 0.878034925428852
00000000: fcb7 550c d969 ef3f 0f77 4e97 8659 eb3f
00000010: c853 e131 b476 f13f bb51 662f 0d55 f03f
00000020: 91b4 eaa2 1c25 ee3f 812c b64e 2f02 ee3f
00000030: 6167 7011 ce13 f03f 314e 658b afe6 ef3f
00000040: 4088 c4cf 291e f03f d99d 9a8a a962 f03f
00000050: cf54 8476 7b4c f03f a9bf 70c7 5311 ee3f
00000060: 0787 e880 d879 f03f 9859 5af9 fdb7 f03f
00000070: 16c3 6abf 87b3 f03f e642 1c9a 09cd f03f
00000080: 0338 9fd8 b3b7 f03f 3bd7 9bb1 aa38 f03f
00000090: 727f 6845 2540 ef3f 680d ad63 1d90 ec3f
000000a0: fba1 6b27 fcf6 ec3f 51a3 fb67 80b8 ed3f
000000b0: bf32 4235 12f0 ed3f 3730 3c6f 9623 ee3f
000000c0: 5353 5ecc 6920 ee3f c1f4 efe5 74b5 ee3f
000000d0: e61b c327 8809 ef3f b259 f04b a372 f03f
000000e0: 8a3f 108d 1c5e f03f 7435 e2f7 98a6 f03f
000000f0: 0ac5 50a3 926c f13f 3b6d c602 354f f13f
00000100: e47c 66d0 374b f23f fee6 7bee 1ffc f13f
00000110: bae3 0c09 2531 f23f fc89 839e e16c f33f
00000120: 2b06 bd8c 0030 f33f 61d6 eb31 b3b9 f33f
00000130: 86e3 a431 41b4 f33f 35e0 05d9 b668 f43f
00000140: 7587 b629 ef6c f43f 5526 bfa0 15ee f33f
00000150: 317a 0e0c 683c f43f cb5f be5c 2090 f43f
00000160: de1f 9704 e742 f53f 1b93 0e10 55d6 f43f
00000170: 18e2 b5c8 4fc4 f43f 6945 7a17 cae5 f43f
00000180: d791 30fb eb7d f43f b12a fee6 de5e f43f
00000190: ff99 68cb f6f3 f43f 61ee 33c0 389f f43f
000001a0: 68eb 76a8 034c f43f b78d c732 20e5 f33f
000001b0: 6f1b f855 8ae2 f33f 9721 5490 97ae f33f
000001c0: b7ed a57e 5a28 f33f c238 8f98 6888 f33f
000001d0: 7ff0 4606 16d5 f33f 1551 3260 6c89 f33f
000001e0: 24c5 5da2 b3be f33f 7cd1 bc80 e4a9 f33f
000001f0: e6a4 5501 6d38 f33f ab81 23af 2d65 f33f
00000200: 4c49 9e90 413a f33f 35dc e7fc 9b69 f33f
00000210: 5d6d 7750 6b60 f33f cf4f 674e b91c f33f
00000220: 864e 5a1f 4e36 f33f 6b75 0393 5de1 f23f
00000230: e484 6ae6 1e5f f33f c278 9afc 03b1 f23f
00000240: f00c b537 b7db f23f afd6 b0cf ce94 f23f
00000250: 20ee 6354 b08b f23f f016 3c97 ec1b f23f
00000260: fc0b 1718 f69b f13f 17a1 0cf5 09bf f13f
00000270: 993c 3fa0 36a9 f13f 9857 81bb 62e0 f13f
00000280: 95ad e105 97dd f13f 3281 9ce7 5908 f23f
00000290: 8b44 0491 4f85 f13f 33df b014 e113 f13f
000002a0: ef6e ce7f 1539 f13f 0454 8849 3a6e f13f
000002b0: 1e5d fc4f 315a f13f 49ee 4470 e8fd f03f
000002c0: 8ae8 5650 8fd8 f03f 19a5 2928 669c f03f
000002d0: 7e14 4b69 14a7 f03f 705e 4204 7a56 f03f
000002e0: 9cfe 5005 673e f03f 8407 427a c619 f03f
000002f0: 279e c8ea edd2 ee3f 4537 b3df 3448 ee3f
00000300: 7b74 58f7 d904 ee3f 2e7b 200b ea65 ec3f
00000310: b7de c042 4e6c ec3f 96ce 2eb3 dc18 ec3f

batch_norm.bias f8 [100]
0.1994599682480162 0.2626485739045063 0.1901297071500842 0.12778236358737965 0.13290520811978287 0.15037489718545233 0.13332963438079554 0.14388903312022253
0.11555923990657614 0.11869657624044369 0.12904807615261432 0.14104886238398545 0.14073054641430507 0.1288437576905239 0.15362213286317206 0.16543258799012928
0.15090703621744572 0.18155867509030463 0.13794134320132903 0.12103118067470216 0.12403967309154164 0.10443048822664154 0.0892867458575053 0.05876327173924518
0.05102976073521728 0.023203932477762895 0.017691924819276197 -0.0149282124180573 -0.012260155959264152 -0.04694941324197495 -0.05966917517875678 -0.06237408910302206
-0.11101964318734761 -0.11503889477638918 -0.11870411231097824 -0.1531818409823873 -0.15007388983166076 -0.151876592347376 -0.18271933224056428 -0.2027976094729775
-0.20739873649187804 -0.18125734354587705 -0.1951153671172202 -0.19911573508119734 -0.2525439437794255 -0.23434930603333323 -0.1984071905350438 -0.21893601579034916
-0.21386159253938508 -0.2102655484631609 -0.20856740615364278 -0.22955536268647622 -0.24108458778708372 -0.23806822605330336 -0.22950533072533427 -0.2356680680661464
-0.21552185687896475 -0.22401905279179027 -0.23352946561929613 -0.2215624848818734 -0.22537928051485437 -0.21779133923458258 -0.2125102568539833 -0.20569360618715765
-0.19829150311987753 -0.20223237193076557 -0.19624357023546085 -0.18308367216911073 -0.1731021038833569 -0.15831387194015856 -0.15352672887282792 -0.1406452186401297
-0.12217287101099862 -0.10975322027671083 -0.09764642010907469 -0.08898875737437136 -0.07557381785836041 -0.06411340340937889 -0.05169724630222855 -0.04235490753022226
-0.036705018743612705 -0.02704618765749335 -0.024873020288712255 -0.02186783590855787 -0.0131832730894707 -0.008930178408411512 -0.005173301998578954 -0.0026401310433319834
-0.0021811937774004037 -0.0007333709386051312 0.0038507082780169792 0.00456505989764467 0.0023253399111019947 0.0017548440493589295 -0.0074010305698215244 0.00043374440188368287
-0.030434337357414493 -0.009359710897833768 -0.029125454109183217 -0.05947195930114108
00000000: 4643 3e7c e787 c93f 7bb2 d0f6 3bcf d03f
00000010: e694 1a95 2b56 c83f 2283 4e28 2c5b c03f
00000020: 63d8 2bb1 0903 c13f 3e83 c610 7c3f c33f
00000030: 5a67 a009 f210 c13f b990 c0b1 f46a c23f
00000040: a13c 2654 4a95 bd3f 7e91 1919 e662 be3f
00000050: 0af6 57b9 a584 c03f 6ae2 899d e30d c23f
00000060: 35e6 3263 7503 c23f cf8a c9c6 f37d c03f
00000070: 5467 4bda e3a9 c33f 981c 8e21 e52c c53f
00000080: d425 a5f8 eb50 c33f 87b2 e88d 503d c73f
00000090: 5973 e8da 0fa8 c13f fd4a cb42 e6fb be3f
000000a0: 11af 5563 10c1 bf3f 5d84 a3db f4bb ba3f
000000b0: 919b 6c05 7fdb b63f f9eb a634 3816 ae3f
000000c0: 44ff f5a2 9220 aa3f c8b7 858c c5c2 973f
000000d0: c721 02fa d41d 923f 3c83 fcc0 ae92 8ebf
000000e0: 1a77 1c47 da1b 89bf ba9f e1e4 c009 a8bf
000000f0: 3cb1 f147 f58c aebf 086b a121 7fef afbf
00000100: 0208 b488 c86b bcbf c023 d562 3073 bdbf
00000110: b2bf 4688 6463 bebf 7022 ae6a 769b c3bf
00000120: 22be 6708 9f35 c3bf ba77 9432 b170 c3bf
00000130: b9fb 28da 5863 c7bf 875b 32a6 45f5 c9bf
00000140: 6d6f 3bb3 0a8c cabf 8f3d 58cd 7033 c7bf
00000150: 5395 5b54 8af9 c8bf 9678 25d9 9f7c c9bf
00000160: c178 d512 ae29 d0bf 6f71 a076 28ff cdbf
00000170: 12d3 5125 6865 c9bf 2c38 de69 1806 ccbf
00000180: 9cdf e910 d15f cbbf c3f8 0f43 fbe9 cabf
00000190: 4481 3836 56b2 cabf 0b0f aef3 1162 cdbf
000001a0: bfbd 0e1a dcdb cebf 60ce 8e06 0579 cebf
000001b0: 6f8a dc40 6e60 cdbf ed1d 870a 5f2a cebf
000001c0: f825 6f5f 3896 cbbf 31f8 b504 a8ac ccbf
000001d0: a95d be24 4be4 cdbf 3248 4bd5 285c ccbf
000001e0: 85ef 806f 3ad9 ccbf 5baa ae2b 96e0 cbbf
000001f0: 3d4f a03d 8933 cbbf 86fa c807 2b54 cabf
00000200: 40be 7cb0 9d61 c9bf 7b4c d117 c0e2 c9bf
00000210: 2a15 1b62 821e c9bf e9ee 3228 496f c7bf
00000220: b81e 86b1 3528 c6bf f438 3e03 a143 c4bf
00000230: 380b c98b c3a6 c3bf d0f5 329b a900 c2bf
00000240: d15e 73a5 b846 bfbf ae1a b87b c918 bcbf
00000250: bba0 f014 5bff b8bf 6575 a29a f7c7 b6bf
00000260: 5bb1 2244 ce58 b3bf d1e7 e06a bc69 b0bf
00000270: a899 52bc 0f78 aabf 99b6 55dd 8aaf a5bf
00000280: 28ad 340e 00cb a2bf e4b3 e1ed feb1 9bbf
00000290: d363 c522 5078 99bf 1807 3fa0 8564 96bf
000002a0: de27 30f6 d4ff 8abf 114d b141 fc49 82bf
000002b0: 38f3 56ae 9930 75bf 66de 9f8f c1a0 65bf
000002c0: 9be6 157e 4bde 61bf 5c13 3c19 f607 48bf
000002d0: 814b db43 858b 6f3f 8844 6fef cfb2 723f
000002e0: 5f39 d95b 970c 633f d408 4d73 59c0 5c3f
000002f0: deb5 1004 8b50 7ebf 4996 5a05 066d 3c3f
00000300: f889 80ce 2d2a 9fbf dd51 a621 2f2b 83bf
00000310: 8136 8523 10d3 9dbf 8973 74d0 1b73 aebf

batch_norm.running_mean f8 [100]
0.298629633274157 0.205569685162508 0.18604554700044598 0.1915325634539735 0.18474943001172983 0.1873758638796552 0.18771282868547828 0.182187797477319
0.18197201824031153 0.18515710193414378 0.18355851637401518 0.18404438874534518 0.18116119259185673 0.18223731312852476 0.18195723222352428 0.1827310340578673
0.18254012591547986 0.18313461840539366 0.1821769157685985 0.17947139938349627 0.1782237007512197 0.17612012681969932 0.1778517269191807 0.17167787653628747
0.17144092908279507 0.1683682035087629 0.16687090707919552 0.16149362660234862 0.15985552415785662 0.1556853246476287 0.15401047929507966 0.14937621414489913
0.1478782908132158 0.14365293243715566 0.1394527897009644 0.1345822152227597 0.13253503117920015 0.1286132617298361 0.12344600258373144 0.12018709799250038
0.11857479698414138 0.11373602644677248 0.11078551578861483 0.10707542887117778 0.10428298279069652 0.0977653882420127 0.09602797973707006 0.09204198670294975
0.08873952755370039 0.08602210251615255 0.08213095708162 0.07817738154739576 0.0751863047885717 0.07341830984707111 0.07153542280829552 0.0681067818103701
0.06466844650408639 0.06181462727506513 0.05908362279358445 0.05709954202613752 0.053816679204522565 0.050717308959066 0.048199467875473974 0.04417312038825349
0.04319566404893607 0.040463397672851106 0.03774245053362159 0.03444754044257756 0.0329828681273223 0.029800954048699632 0.02731222741548084 0.023960169983172803
0.02255709683025721 0.019749365971146873 0.017646425751503374 0.016084051573195993 0.014633262750287946 0.013518270456082887 0.011888508377637575 0.01124542215705386
0.0092875414145884 0.008438485171888806 0.007350121081292786 0.006603676433289593 0.006146927948382622 0.005448137468654387 0.004770344364689021 0.00444225293224438
0.0041832403936951645 0.004040454507254754 0.003250903620017417 0.002826386955157198 0.0025161226083765076 0.0023260431660222783 0.0017567650456340983 0.0016691137484967126
0.0016831918253854645 0.0014202122769200016 0.001592800814133523 0.0009594486306018624
00000000: c5da 2177 bf1c d33f ea36 6981 1b50 ca3f
00000010: e577 f729 57d0 c73f b7b1 1398 2384 c83f
00000020: 5071 ed8b dea5 c73f 8020 b6ab eefb c73f
00000030: 2e34 1f56 f906 c83f 0a9b f203 ee51 c73f
00000040: 618b 90ed db4a c73f d7f2 b658 3ab3 c73f
00000050: 3f45 5d70 d87e c73f 7a37 563b c48e c73f
00000060: c541 be3a 4a30 c73f 04bc ff61 8d53 c73f
00000070: f6d9 d5e4 5f4a c73f 2514 9f03 bb63 c73f
00000080: f4e1 818f 795d c73f 8786 6886 f470 c73f
00000090: b4f8 a7bb 9251 c73f 3ab1 7537 ebf8 c63f
000000a0: 3f9e 0cc3 08d0 c63f 53d2 6db4 1a8b c63f
000000b0: 2bd7 536b d8c3 c63f 32c5 9568 8af9 c53f
000000c0: 7ca0 cdbf c6f1 c53f 03d2 e0db 168d c53f
000000d0: 4d8d 47a0 065c c53f ba7f 62ba d2ab c43f
000000e0: 33e5 2b54 2576 c43f 1a13 ea28 7fed c33f
000000f0: c225 e889 9db6 c33f b9bc 4681 c21e c33f
00000100: c462 6a03 aded c23f ea62 6523 3863 c23f
00000110: 7b01 8dc9 96d9 c13f 64a3 8072 fd39 c13f
00000120: b797 3e6c e8f6 c03f 8f13 7b3c 6676 c03f
00000130: 6347 eb3f 289a bf3f 6068 47e7 94c4 be3f
00000140: f53d 2dfb ea5a be3f d743 f7e1 cd1d bd3f
00000150: 5fbe 2e87 705c bc3f 45f6 3499 4b69 bb3f
00000160: 0b89 9d20 4ab2 ba3f c420 2e09 2707 b93f
00000170: 24bf 7828 4a95 b83f 4a7f bf4a 1090 b73f
00000180: 6fa4 b438 a2b7 b63f b43f 0a65 8b05 b63f
00000190: e19c a7ce 8806 b53f 4a71 08d1 6e03 b43f
000001a0: 818b 2ce0 683f b33f 1184 b8d7 8acb b23f
000001b0: e997 773d 2550 b23f a7e7 8230 726f b13f
000001c0: 0574 d17e 1c8e b03f ad25 1fb5 2aa6 af3f
000001d0: bc5a 4167 3540 ae3f 5dd8 3cb3 263c ad3f
000001e0: ab53 531a dc8d ab3f 7f00 a47e 9ef7 a93f
000001f0: 1966 6bc4 99ad a83f 4f11 dcf6 db9d a63f
00000200: 349f d6f8 bd1d a63f 8e3f 6153 9eb7 a43f
00000210: 72f4 6c7d fa52 a33f cccb 41a7 1ba3 a13f
00000220: 5dc9 de67 21e3 a03f 3c74 1d2c 2484 9e3f
00000230: 7022 1f8e bcf7 9b3f b2f3 efc9 0389 983f
00000240: a4f2 b624 3519 973f 27eb d983 2d39 943f
00000250: eeda f995 e711 923f 54e9 f96d 5678 903f
00000260: adf1 9147 0bf8 8d3f 3d12 0f8c 77af 8b3f
00000270: cdff 7095 0059 883f d771 2703 d707 873f
00000280: 2f54 16b5 5805 833f f174 ba4e 3248 813f
00000290: 3816 a71a 291b 7e3f 568e 07e5 740c 7b3f
000002a0: 4491 2568 852d 793f 221f 0844 c950 763f
000002b0: 6c8a 9790 118a 733f 4865 0831 0a32 723f
000002c0: c066 ea0a 7222 713f f39f 833f b98c 703f
000002d0: ac9f 5f97 a3a1 6a3f 9345 39f1 5c27 673f
000002e0: d73d 1a0a b19c 643f 3e03 78ea 100e 633f
000002f0: f37c bc1a 68c8 5c3f 1163 a33d c558 5b3f
00000300: 2c7c f275 d193 5b3f b18f 1852 cd44 573f
00000310: a1bc f7d9 b018 5a3f 71dd cc3e 7070 4f3f

batch_norm.running_var f8 [100]
2.320902490718229 0.026781518495708385 0.015933628796997633 0.019828813229140516 0.01354853599456979 0.036296816198390834 0.014370584932015297 0.025208705770032012
0.013707885729334027 0.021407709054210633 0.014149155888661566 0.015620812596421974 0.014001867831804115 0.013686941656066258 0.011873481949774809 0.012573151026341494
0.013021347127486765 0.014579551061492493 0.018870590848109808 0.013402039809680528 0.013757899479998448 0.014035641502589494 0.038968301302662295 0.016272852798075672
0.01578828644026129 0.01577935982015691 0.01890132064372881 0.01693235088789542 0.019907356649571495 0.017497209996421088 0.018415382173719023 0.01940009109379761
0.01979054807072269 0.019036258958849448 0.021060364268350167 0.018285441332692425 0.021261774242098783 0.018940846966946968 0.018084319184441675 0.018479432379909202
0.01876869438391731 0.018134299909691082 0.01883680930773982 0.020172524899457034 0.020412231908001517 0.017913253019474697 0.01944901538475123 0.017072754354340382
0.01723948879418645 0.017091268137953388 0.01651240895073442 0.015810887196622714 0.01520171421446849 0.019711032933655157 0.018909626279061002 0.015234700693279186
0.014391782153093368 0.014323667539408056 0.013740401903743869 0.013779501438113987 0.013062054012305266 0.012317715002478032 0.01234235334335309 0.010932924341944148
0.011464087684988578 0.012333888153634376 0.010487115435858143 0.009870345822338708 0.009715433489661794 0.00868284174591765 0.008466440391113347 0.007309041840181142
0.007152099654153194 0.006145255788688132 0.005290945828526231 0.0050212783485897375 0.004493643791122717 0.004432845149589894 0.003939897041770074 0.0038508587523461025
0.0029174829576498625 0.002796255914521359 0.002451555056869589 0.0021296983952405857 0.0021021123782695834 0.0018172848018405004 0.0014918118395427244 0.0014615329968208563
0.0014611769010588107 0.001543000968318864 0.0011387965225249249 0.0009746718669028981 0.0008388542558691621 0.0008448224186881532 0.00050522825906037 0.0005106552015129551
0.0005694341002569733 0.00044824745000433857 0.0007159702380585077 0.0003100569050194344
00000000: c8b7 3653 3591 0240 151e 4e48 9d6c 9b3f
00000010: 96dc 5bba e750 903f 19c1 5921 014e 943f
00000020: 21f8 0ab8 55bf 8b3f 0bc2 0a0d 7f95 a23f
00000030: 148c 7542 536e 8d3f 2956 6d9b 4fd0 993f
00000040: 0805 3d47 e112 8c3f c099 1409 e7eb 953f
00000050: a563 768e 3bfa 8c3f 2d9b e8f9 cdfd 8f3f
00000060: f935 5de3 02ad 8c3f dc4a 5c36 e607 8c3f
00000070: 12ba 4fc5 1f51 883f 43f8 b9c3 f3bf 893f
00000080: a3d5 7fa0 efaa 8a3f 5beb fe37 e2db 8d3f
00000090: 1b00 32ea cf52 933f e448 7555 8772 8b3f
000000a0: e040 a002 1a2d 8c3f f523 dbe9 b7be 8c3f
000000b0: 64e9 5937 a7f3 a33f 2249 52aa d4a9 903f
000000c0: dae6 aef7 cd2a 903f e97e 84e9 7628 903f
000000d0: d568 1028 de5a 933f 134c 3bd5 b656 913f
000000e0: 70f3 0917 9862 943f 55d0 d2e2 c9ea 913f
000000f0: 91c5 b760 7bdb 923f 262d 2613 9edd 933f
00000100: 2647 ef32 f943 943f a970 aab6 3d7e 933f
00000110: 2eff 181f d990 953f ab3e 1132 6bb9 923f
00000120: ec57 1984 a5c5 953f fd55 20b9 3a65 933f
00000130: 29d3 de1d b284 923f 57a4 e1b6 45ec 923f
00000140: 2e2a 45c2 1938 933f 6521 3144 cc91 923f
00000150: 893c c0df f449 933f 3037 e23a 1ba8 943f
00000160: f2d4 eeb1 f1e6 943f ead2 880f da57 923f
00000170: 2c50 1154 71ea 933f d70a 6b26 857b 913f
00000180: fc7c 4882 3aa7 913f 0778 cc96 5f80 913f
00000190: 32b3 af01 a1e8 903f c090 b8ad ba30 903f
000001a0: 887c 278b 1322 8f3f 3c1e 4807 212f 943f
000001b0: 9ee7 ca89 0b5d 933f 9794 efe9 5e33 8f3f
000001c0: 53f6 6d4d 7079 8d3f 7fd0 1f1d ba55 8d3f
000001d0: dfda 7b86 ed23 8c3f af4c 4160 6d38 8c3f
000001e0: a557 6936 47c0 8a3f 04d8 c6b8 073a 893f
000001f0: fc17 b99f f246 893f bf80 fc43 0064 863f
00000200: a0e8 7bcd 7b7a 873f 93e0 0472 8242 893f
00000210: 0e71 9cce 447a 853f 45a7 0e64 e736 843f
00000220: d923 d668 afe5 833f dc33 ae4a 4fc8 813f
00000230: 4b36 bf64 da56 813f 28e3 b2fa 15f0 7d3f
00000240: fa10 cc21 854b 7d3f 4120 358a c42b 793f
00000250: 375c c674 f5ab 753f 4830 a924 3191 743f
00000260: 03c4 f651 ed67 723f 28ac 21cf 2c28 723f
00000270: d3a9 1a0f 4823 703f a414 e40c d68b 6f3f
00000280: 63c7 78bc 67e6 673f e01d 8876 2ce8 663f
00000290: 4628 6599 4815 643f 1722 a71e 4d72 613f
000002a0: 9b93 59fd 7238 613f c6ab a6b2 3ec6 5d3f
000002b0: 08fe 01c4 1c71 583f 5f80 181b 1df2 573f
000002c0: 58eb 3cc0 9ef0 573f 9a84 95ac d047 593f
000002d0: 46f8 8b74 75a8 523f 2e83 76e5 23f0 4f3f
000002e0: 1b34 2bcc d17c 4b3f aa71 6054 e2ae 4b3f
000002f0: 9d4a c26c 298e 403f 6784 ecb1 afbb 403f
00000300: de0a 3e6b c2a8 423f 0795 6623 5860 3d3f
00000310: 4985 f160 fe75 473f c952 5744 e451 343f

rnn.weight_ih_l0 f8 [32, 2]
-0.016429853823110185 0.11718973727195078 0.15436079503471797 0.013417624077954635 0.137190598610286 0.12843997847481495 0.167724320866829 -0.16087152543147953
0.0735222817233663 -0.003084953571858817 0.06684871949786159 -0.08653110421987188 -0.09449385971192864 0.0838143079828285 -0.02562298589087764 -0.04274772983564368
-0.08089271584641038 -0.13070680449353692 0.21929413494474753 0.017849177532703143 0.20381048264988044 -0.2157274837654586 -0.0881617984747764 -0.06042275896795198
0.07447401209446439 0.04805886521822921 0.04485800704730575 -0.031397382289221586 0.22295456980754297 -0.13442053331296183 0.018842377090246613 -0.17256832942314
0.17693494091793452 0.08614112093446372 -0.16264137716959517 -0.10819002584331389 -0.09332239062740559 -0.08431605961087987 0.012147555515470464 -0.3408763902475145
0.22276566882851315 -0.18198475264778124 0.12010878751238711 0.07204370426624351 -0.0886961555838389 -0.10319355053412348 0.23209824568986298 -0.06170238176662083
-0.01349377247074882 -0.14487347211782858 0.013816249230737205 0.044603999755286394 -0.027265234612210015 0.1237997845171663 0.09446290944169412 0.030875044717697784
0.16931264120516185 -0.0009067647984442238 -0.31377792490707074 0.20328908498815706 0.22109488209442352 0.10306978499491896 0.1781583972118703 -0.0681405381488052
00000000: b0ad 64d3 fcd2 90bf 3e86 0289 2500 be3f
00000010: cbb5 3a33 18c2 c33f f2b4 d604 b37a 8b3f
00000020: 9bc7 2c27 768f c13f d92d 86a1 b870 c03f
00000030: a5f4 6e94 fd77 c53f b4fc 4a2a 7097 c4bf
00000040: d276 8733 5bd2 b23f 4c0d 6dd6 9d45 69bf
00000050: c4d5 0568 ff1c b13f c90b b606 e726 b6bf
00000060: 1cb3 22e5 bf30 b8bf 671e b9bf da74 b53f
00000070: 0171 b579 e93c 9abf 70a2 3ecb 07e3 a5bf
00000080: 1382 0b91 62b5 b4bf 490b 5525 00bb c0bf
00000090: 226a e588 d411 cc3f edc7 0d07 0e47 923f
000000a0: 5417 c83e 7616 ca3f 717d cf4b f59c cbbf
000000b0: 3ca9 3489 c591 b6bf bb23 675b bbef aebf
000000c0: 7afe 5896 ba10 b33f 3f53 caec 2b9b a83f
000000d0: a8bd 76f2 a0f7 a63f 6b74 3954 5113 a0bf
000000e0: 3e98 e87c c689 cc3f f2b9 3e29 b134 c1bf
000000f0: 41aa 8685 6a4b 933f 924f 9911 b816 c6bf
00000100: 7590 61dc cda5 c63f fa19 4131 580d b63f
00000110: 69bc f5c1 6ed1 c4bf 0c1c c06e 57b2 bbbf
00000120: bbaf bae7 f9e3 b7bf b26a 8ebe bc95 b5bf
00000130: 9983 524d d1e0 883f e8dc 0535 ebd0 d5bf
00000140: b91f 25df 9583 cc3f 5c16 7fc0 464b c7bf
00000150: 4bf2 5312 73bf be3f 48ca b4c9 7471 b23f
00000160: c775 838f cab4 b6bf 4fc2 b37c e46a babf
00000170: 2635 5933 65b5 cd3f 35bf 8b5f 7497 afbf
00000180: 5237 b17b 9fa2 8bbf d6ea 66c4 368b c2bf
00000190: fd92 cb94 b14b 8c3f b082 70e0 55d6 a63f
000001a0: 8ba9 e8eb 6aeb 9bbf 9ec9 c0b9 57b1 bf3f
000001b0: a9b1 bca2 b82e b83f c9d9 4c2d b59d 9f3f
000001c0: 4b45 6360 09ac c53f b710 c693 7eb6 4dbf
000001d0: edaf 6b01 f014 d4bf 0a36 d471 6005 ca3f
000001e0: 8c4a f44b d64c cc3f 2349 c20b c862 ba3f
000001f0: 7f31 c4f4 e4cd c63f 8386 e186 a871 b1bf

rnn.weight_hh_l0 f8 [32, 32]
0.02898513994825074 0.030862608477060578 0.03570467794274277 -0.026161586269489414 -0.14565064743664208 -0.10183533648393174 -0.0826018295482742 0.04640554694518477
-0.006307168994989995 -0.17447230828442523 -0.021720002839930582 0.06485566798911815 0.03286038384864825 0.2174484276567108 -0.0913939838167353 0.053516953637155036
0.2006488168741249 -0.12763050330567813 -0.06605415817503503 -0.13297204044544186 0.02996564412438242 0.22268486397992626 0.07095163069313101 0.13751784287718372
0.22787394526924876 0.07548164266984467 0.01608568401611306 -0.24114155364420253 0.08310334069542233 -0.04249893546364868 0.046781441463718446 0.06343265995244704
0.22304927688210124 -0.0016020761855612925 -0.10282739758120929 0.033459536397095965 -0.16540798870474496 0.038340805189083185 -0.0941172383711352 0.13268872323422226
0.11853977094723406 -0.2803866799235201 0.319384895678794 0.013136983217746877 -0.004828943940907703 -0.027930362910292127 -0.15742979587801215 -0.01214244380942709
0.15318918559536396 0.008602602523522357 0.05673820541338911 -0.00576187839468272 -0.09787643250947203 0.2086716879319877 -0.03615507161740434 -0.08822230199208214
-0.14054319492579243 0.20768583561230836 0.21388852361367772 -0.2126033645395536 0.049149672014624765 -0.2307335364004038 0.1900262264967607 -0.01764140226692777
-0.07217018029224484 0.0782875698991372 -0.09033289911186163 0.025829274593325787 0.07924612550931528 0.19176908655233127 0.2345109124675106 0.09472810717664097
-0.027958525009283804 -0.13247395299880843 0.0725393791373799 -0.0015939432343387804 0.0053404970393419356 -0.03362737616329226 -0.02675353808015434 0.15607078554716097
0.03390015932325874 -0.23162732941374034 -0.0854751096123388 -0.0453968822674923 0.001296731164372319 0.1778508113296773 -0.07766623548879062 -0.055478248995836005
0.026180782431307063 0.09380585625501932 0.09444801784278546 0.04518425654920478 0.061471209654428476 -0.2494719789502917 0.07148588763166941 0.11837783908972864
-0.18898166179280287 -0.026731774110999158 0.1464722558567125 0.07668530354502846 0.18083650979221108 0.08234067285744152 -0.18798172066819088 0.039191687478017996
-0.2935389958085658 -0.0541868647769875 -0.17125510544087527 0.19953942415206946 0.0579532735251466 0.04780760861959171 0.13159149565870734 0.02319096837311003
-0.1925522247763854 0.020124906004542458 0.19814501997820402 0.19455783661191997 0.04638150467457214 -0.06814751391161492 0.1969783166592 0.1643293243188168
0.0020217341068028342 -0.032204024013071555 -0.046426367791736575 -0.24162870660281494 -0.05656531089786864 -0.0687433393336139 -0.1092818266412886 -0.14654396986263155
0.047087753687729904 -0.12651548731838738 -0.172108244016942 -0.08741999634135958 0.1356268410747829 -0.04879653894599278 0.060784419740968175 0.1432784666464156
-0.3066223756062116 0.058122760539805564 0.03242710916790651 0.1211953385964861 0.09806125991428215 -0.1302150060890478 -0.033635928131384066 0.0439914166178853
-0.12491196421382071 0.11912392490758479 -0.12036286147565171 0.093147801844227 0.09020573410512361 -0.015773244704636872 0.09330612627024092 0.1328130668393011
0.02449517210447238 0.0521811314746693 -0.13444617093546338 -0.01518025936204934 0.09555889886583693 0.05085287259810965 -0.10555212575596908 -0.1350819321876738
0.14886364683537648 0.11429216375547677 0.09872355777911451 -0.05856930683416946 -0.0618308279163365 -0.13397579018227532 0.060965402481545014 0.2148576369718868
-0.025934828988954058 -0.14053155169956175 -0.04052046459288378 -0.10660402765014243 0.09228522785075133 -0.05834782905347367 0.013800740938692161 0.13512331490390125
0.11517215746235973 0.017526391777770198 0.22543039281097338 -0.013724127978730783 -0.08835678951080862 -0.09360190287015033 -0.02179337411897197 0.023008636439707665
0.1844680910917818 0.06554516996326322 0.04496350442086679 -0.262815770756656 0.09433586437588935 -0.18485561717897148 -0.017902099929032435 0.024471725996488447
-0.017441621503235683 0.20768821602929255 -0.005814640015924623 -0.0016739114363415989 -0.09608440934486188 0.059370521187356314 0.04553225080355281 0.02977811210733918
0.125110806472772 -0.0049362678183663905 -0.18231021511951945 -0.08701060018795406 -0.03615941549308423 0.023730556956149184 -0.016780088675007312 -0.10286242484721299
-0.0007252208641486053 0.1353683619225908 0.07445457318918625 -0.1412429389217237 0.17680816251288722 0.17359054791755477 -0.15518943182704634 -0.11148356443992531
0.04684701652893315 0.05942670721090268 0.2082444114205807 -0.22161207801559613 0.1137940541231987 -0.16254114085248783 0.16723388936987144 0.07312332941589218
-0.044130185926813094 -0.10034838882438565 -0.15953096167916672 0.16548288963962604 -0.07156734941079708 0.003205371366087768 -0.05539697096600582 -0.020928421743707782
-0.0828979659228457 0.05282753344026915 -0.10722718008822632 0.13301443169827035 0.11729878249850377 -0.14003176419018198 -0.18626892972444214 0.11742825079390266
-0.021514107145571972 -0.027384635220031896 0.14821722682202876 -0.1055837031321536 0.08550138413850268 0.011454800033044756 0.010448292651108892 0.1945358824193764
0.06849858029612801 -0.008505530340720506 0.026676937814650043 0.09990735748596888 -0.20410973468153684 -0.08376271354086481 -0.12132339255486503 0.060483336877017825
00000000: ed43 97d0 47ae 9d3f e21a 5098 729a 9f3f
00000010: fd15 2830 e247 a23f 6779 c155 1aca 9abf
00000020: 66d8 b02f aea4 c2bf 8190 c66f e111 babf
00000030: 0fe6 7fbc 6425 b5bf 4612 f7c4 77c2 a73f
00000040: b06f 05c9 8bd5 79bf 7ed2 11cd 1b55 c6bf
00000050: 5f53 77b7 c43d 96bf 1237 f98c 619a b03f
00000060: f78a ed83 13d3 a03f b814 ad9e 59d5 cb3f
00000070: a445 8b9b 9865 b7bf f166 4efb 9266 ab3f
00000080: 7e4c 3a45 dcae c93f 87bf d542 3256 c0bf
00000090: f967 20e1 ece8 b0bf 946e 7f52 3a05 c1bf
000000a0: 6439 1256 50af 9e3f acd2 0d08 f080 cc3f
000000b0: 1ec4 6cd5 e229 b23f 7811 e346 2f9a c13f
000000c0: 8c5d 4533 f92a cd3f 9620 b7d2 c352 b33f
000000d0: 95c9 21fb c378 903f a8e2 4df7 b9dd cebf
000000e0: b6a5 79b2 4246 b53f 5ec4 dca3 6bc2 a5bf
000000f0: 22f6 4ab2 bcf3 a73f fe79 fe6f 1f3d b03f
00000100: 0e73 cdf2 e08c cc3f eee3 a634 983f 5abf
00000110: 407c be75 e552 babf de33 21bd 9b21 a13f
00000120: 45f4 fdc6 162c c5bf fa61 c7f0 67a1 a33f
00000130: 8a3a cb3c 1118 b8bf b263 6baf f1fb c03f
00000140: 3463 7e57 9f58 be3f bf5a 20f9 daf1 d1bf
00000150: f6b6 7158 cd70 d43f a67c 4e0a 90e7 8a3f
00000160: f280 cec4 83c7 73bf 967a 0fed c699 9cbf
00000170: 6623 5bd8 a826 c4bf 84a7 7038 23de 88bf
00000180: b7d1 1d07 b49b c33f e3fb fdc3 3d9e 813f
00000190: 3b54 5e41 ca0c ad3f 368f 4c74 c499 77bf
000001a0: bc65 ad0c 6e0e b9bf c26e a2fd c0b5 ca3f
000001b0: f9d1 5ce4 ea82 a2bf c875 d59d bc95 b6bf
000001c0: 4ed9 f0c4 51fd c1bf d00d e60f 7395 ca3f
000001d0: 448a f4fa b260 cb3f fbc4 db48 9636 cbbf
000001e0: c6e9 d253 252a a93f 7b0f 7730 ad88 cdbf
000001f0: c8ca 1786 c752 c83f 3b0b 2b77 9610 92bf
00000200: 7603 1ab4 be79 b2bf 7f6d 6678 a70a b43f
00000210: 4a35 708f 0e20 b7bf 0f86 a146 fd72 9a3f
00000220: 3eb0 655d 7949 b43f 9c22 90b1 e38b c83f
00000230: 9e31 cd1d 7404 ce3f 8bed 55ea 1940 b83f
00000240: cfb1 3cda 28a1 9cbf 12d2 d90f e8f4 c0bf
00000250: 7433 11d5 f091 b23f 6be7 0a84 7b1d 5abf
00000260: 94c1 0dc2 eadf 753f 5146 be81 9b37 a1bf
00000270: 5d1c 6d8c 4765 9bbf 769e e4a3 20fa c33f
00000280: 90c3 3e97 5c5b a13f 018e 58de f6a5 cdbf
00000290: d531 6860 b2e1 b5bf 93c5 5b99 423e a7bf
000002a0: 8aeb 547c e23e 553f 1930 1dbd d0c3 c63f
000002b0: aa83 6d35 efe1 b3bf d425 2722 a567 acbf
000002c0: a1fb 4d91 22cf 9a3f b5e0 c91c a903 b83f
000002d0: a989 cecb be2d b83f 7187 5810 6422 a73f
000002e0: 3700 3986 2779 af3f 4f11 6ea3 b2ee cfbf
000002f0: b8e8 802d e64c b23f 2727 7693 024e be3f
00000300: 21cf 7814 8d30 c8bf 0580 48fe 925f 9bbf
00000310: b384 5656 9abf c23f 794a cfe6 a5a1 b33f
00000320: 777b bd97 a625 c73f 19a8 0d41 4714 b53f
00000330: 0902 42f7 c80f c8bf d97c fccf ee10 a43f
00000340: 5a4d c6c8 57c9 d2bf 0c0c 2e78 61be abbf
00000350: a71f 92f2 afeb c5bf bb76 7f02 828a c93f
00000360: d529 f92c 0dac ad3f 78cf 0a27 3d7a a83f
00000370: 8597 2479 fdd7 c03f d27a e68a 5fbf 973f
00000380: 0ae3 1722 8da5 c8bf eb92 7f94 9f9b 943f
00000390: b9f8 55e6 d05c c93f e5df b66c 45e7 c83f
000003a0: c0e0 6e0b 51bf a73f ead8 8d8f 1d72 b1bf
000003b0: 4544 09e2 9536 c93f 668e dc48 be08 c53f
000003c0: ef6e d63b e28f 603f 7219 dfbb 0b7d a0bf
000003d0: ced6 ac66 32c5 a7bf a222 5180 b0ed cebf
000003e0: 2ff1 c9e0 20f6 acbf b275 41da 2999 b1bf
000003f0: a8b2 78cf e4f9 bbbf a535 feea f3c1 c2bf
00000400: c305 43d4 e21b a83f 3128 3cd4 a831 c0bf
00000410: 535e b697 a407 c6bf d275 4d29 2861 b6bf
00000420: 2e20 7067 385c c13f dfaf dc25 dcfb a8bf
00000430: 839f c9ad 221f af3f 2bd3 3be4 f256 c23f
00000440: 1bd5 dc74 b39f d3bf 9de9 5737 44c2 ad3f
00000450: c58c c23a 499a a03f fe15 b35f a806 bf3f
00000460: 271e 56f0 8a1a b93f 54ea 4ca4 e2aa c0bf
00000470: 42fd 9676 ba38 a1bf 0f68 5bff 0a86 a63f
00000480: 7b6f 2d01 3bfa bfbf 5d34 a6d1 e77e be3f
00000490: fbde b0b9 19d0 bebf 9880 9dca 88d8 b73f
000004a0: 4ca7 e415 b917 b73f 9104 a288 dc26 90bf
000004b0: 97dd d808 e9e2 b73f 8a33 47c1 0400 c13f
000004c0: 7ff7 642c 4315 993f 71d0 4d3a 7cb7 aa3f
000004d0: 37c0 9e39 8835 c1bf 72d4 09ec d316 8fbf
000004e0: 6275 7849 8c76 b83f bedd 6e41 6309 aa3f
000004f0: a129 25d0 7605 bbbf f365 8360 5d4a c1bf
00000500: 7551 5cc7 f60d c33f 4ed3 8451 4042 bd3f
00000510: 5c8d 0174 f245 b93f 3ae6 cdd2 cbfc adbf
00000520: ca0e 924f 4aa8 afbf d7f1 a462 1e26 c1bf
00000530: 4e01 b173 db36 af3f 3688 0b7e 7480 cb3f
00000540: c2f2 56e9 a88e 9abf 3f89 4d19 f0fc c1bf
00000550: d985 7d2c 19bf a4bf f815 61cc 664a bbbf
00000560: d0db 8533 01a0 b73f ad8f 2743 c4df adbf
00000570: 6221 f017 9043 8c3f 1f3d 3885 b84b c13f
00000580: b6e9 b529 ec7b bd3f cc76 023e 70f2 913f
00000590: 62e3 5232 e7da cc3f 7a9a ad46 651b 8cbf
000005a0: 3117 54f1 8c9e b6bf a6b0 ab57 4bf6 b7bf
000005b0: fe20 7194 0051 96bf aaea 2274 938f 973f
000005c0: 3a87 3281 a69c c73f 8129 6779 91c7 b03f
000005d0: ea99 00da 7405 a73f b776 113d f9d1 d0bf
000005e0: 0f97 552c 6526 b83f 78fe 214f 59a9 c7bf
000005f0: f750 e696 ed54 92bf 908c 53bb 1d0f 993f
00000600: 5d4d c867 37dc 91bf 6821 ce07 8795 ca3f
00000610: b573 4d8b 17d1 77bf f2fc 07b8 e46c 5bbf
00000620: 23aa cae3 fc98 b8bf 413d b11d d065 ae3f
00000630: 8da3 3ad0 0050 a73f 66f2 8c46 277e 9e3f
00000640: 729f 1683 a103 c03f d9c3 814d 0d38 74bf
00000650: b620 d5ed f055 c7bf 926c 36a2 5346 b6bf
00000660: a275 f8a5 7c83 a2bf f38b 2bb8 d24c 983f
00000670: b421 55b0 cc2e 91bf e1be b41e 3155 babf
00000680: be27 6bf2 97c3 47bf 7370 af1f c053 c13f
00000690: 089c e274 740f b33f 65d8 baa5 3f14 c2bf
000006a0: 6850 d45d a6a1 c63f dfad 190f 3738 c63f
000006b0: e7e4 304f 3fdd c3bf e59c 4fd7 2f8a bcbf
000006c0: 5a5a d007 55fc a73f 9ca7 f567 2d6d ae3f
000006d0: 1c26 50bc c0a7 ca3f 00e0 bcd9 c85d ccbf
000006e0: 7c3a f06c 9b21 bd3f bca4 1bea 25ce c4bf
000006f0: 7e30 d08a eb67 c53f e177 6ae4 35b8 b23f
00000700: 45e5 a452 3b98 a6bf ceff 3498 6eb0 b9bf
00000710: 0144 8eb3 826b c4bf e65e 8617 8b2e c53f
00000720: 7d47 2ee1 3c52 b2bf dc51 0ba6 2642 6a3f
00000730: c062 31e5 fd5c acbf bdd3 c89b 426e 95bf
00000740: c025 8b14 cd38 b5bf 529a e8e0 350c ab3f
00000750: d2a2 b88f 3d73 bbbf e521 05ed 9d06 c13f
00000760: a712 b102 4b07 be3f c68b cc93 8fec c1bf
00000770: 16b5 b608 a9d7 c7bf d34a c920 c70f be3f
00000780: b719 5f4a cb07 96bf 2751 bbc2 b70a 9cbf
00000790: 48c4 f336 c8f8 c23f c073 f197 8807 bbbf
000007a0: e539 a330 6be3 b53f f473 313c 9d75 873f
000007b0: f367 e219 ea65 853f 71e2 7142 8de6 c83f
000007c0: a2bd 317a 1f89 b13f a930 30f5 586b 81bf
000007d0: f5a8 e2fd 3251 9b3f 4632 0851 8793 b93f
000007e0: e14f a08d 4420 cabf 4640 4823 7971 b5bf
000007f0: 694e 43c3 0c0f bfbf b5f2 ad03 acf7 ae3f

rnn.bias_ih_l0 f8 [32]
-0.0756889658921375 0.11737675808994413 -0.06555255178670256 0.02364215422314839 -0.045595682921086705 -0.037279798373590314 -0.09635004212561814 0.03656163031834037
-0.06426815265156843 -0.05051969394950631 -0.09759380994765393 -0.0014963950186618479 0.029916139993920687 0.15396627749718583 0.04907480636246899 -0.14390902755854532
0.13111749931456768 0.09419128329683979 0.056654525013106055 0.07594003066883082 0.0160058996025022 0.007856099927330792 -0.21372370864952991 0.2071054455937531
-0.07761000885625698 0.08454973894526083 -0.03012823165641846 -0.07459531794381244 -0.03289528623527037 0.004413238937241744 0.06551066261560046 -0.1369484273142651
00000000: 0abf 2c21 5a60 b3bf 548b 4e39 670c be3f
00000010: 2dde 1752 0dc8 b0bf b919 c81c a635 983f
00000020: ac3e f83d 5158 a7bf 92d0 a175 5616 a3bf
00000030: 17d3 e577 65aa b8bf f1ec 02bd 34b8 a23f
00000040: 1c15 d0ad e073 b0bf 8455 a2a2 b7dd a9bf
00000050: 1468 046e e8fb b8bf 42f2 b0ea 5584 58bf
00000060: 33f6 952b 56a2 9e3f 64c5 44bf 2ab5 c33f
00000070: d3c7 c440 5520 a93f 5947 7b6b 9c6b c2bf
00000080: b2a3 be4d 75c8 c03f c804 5481 eb1c b83f
00000090: 9c12 3468 d201 ad3f a80b 2e4c ce70 b33f
000000a0: 9fdd 57bd d963 903f 2b90 18e2 db16 803f
000000b0: bbc8 8369 4c5b cbbf d807 d365 6e82 ca3f
000000c0: bd40 e1e1 3fde b3bf 56bd a73b 0da5 b53f
000000d0: 8a3e 9a66 efd9 9ebf 96de 00c3 ad18 b3bf
000000e0: 2e66 25a5 a6d7 a0bf e26a 7ace 9d13 723f
000000f0: c829 7989 4ec5 b03f ded5 46ac 8687 c1bf

rnn.bias_hh_l0 f8 [32]
0.17075856747692686 -0.02199062115819797 0.13977729107876447 0.03489500451726137 0.025466569004381504 0.1327243086844581 0.06049184689816286 0.06167303735989006
-0.11733814650513734 0.005864966354086383 0.08713744999440089 -0.16606070652302585 -0.02514770373319106 0.16446676816262157 -0.046531885772864975 -0.09911428926585114
-0.02022561535952352 -0.006522699881298821 0.13135088703169132 0.04457597718105306 0.003471415335267423 -0.06489318696269918 -0.17280060495938243 0.048435228794970454
0.11598198817114018 0.13579739529062804 -0.08830538244234144 0.08162751723933122 0.1403774575858736 0.12479718702493386 -0.010231418192085312 0.14536706531573976
00000000: 7ca0 69af 6adb c53f 88d2 c59a b584 96bf
00000010: e810 f4e6 38e4 c13f c30c 640e c2dd a13f
00000020: 6482 0f84 e813 9a3f e18b 9732 1cfd c03f
00000030: eb59 3490 c9f8 ae3f f2ec 02bd 9b93 af3f
00000040: 1315 d06d df09 bebf ee53 edea dc05 783f
00000050: f197 fbd1 a34e b63f e461 d52b 7a41 c5bf
00000060: b909 6ad4 51c0 99bf 62c5 443f 3f0d c53f
00000070: 2638 3bff 06d3 a7bf ac8e f6d6 8d5f b9bf
00000080: 47e2 0a12 06b6 94bf f3b2 bfea 8bb7 7abf
00000090: a904 0d1a 1bd0 c03f 4917 5c98 a9d2 a63f
000000a0: 2fed beea 1570 6c3f ffed bc03 d79c b0bf
000000b0: b8c8 8389 541e c6bf 351f 4c97 80cc a83f
000000c0: 43bf 1ede feb0 bd3f a3de d31d cf61 c13f
000000d0: a18f a679 2e9b b6bf 6d21 ff7c 8ae5 b43f
000000e0: 70a6 b676 e3f7 c13f a4a6 e75c b5f2 bf3f
000000f0: 90b1 36b4 35f4 84bf 212a b953 639b c23f

linear.weight f8 [32, 32]
0.1434123164912779 0.02463776631960425 0.05899057605382787 -0.1014866172730149 -0.05839152602243873 0.1736405250684872 -0.1312287695022602 -0.03601110679685019
-0.08992693631096842 0.16461264703288933 -0.12383281723090148 0.009478917920432824 0.16042788287630821 -0.1365543796000056 0.08017242009726495 0.04157992601836863
0.09639861814548559 -0.1417558564800291 -0.10156003301792554 -0.14388591342019824 0.005458495370505234 -0.11966194692508646 -0.03334455879043985 0.07947160035234938
0.013930263595423093 -0.038147264700926116 0.01531240677290002 0.0002915212643545661 0.14237913335587882 0.08763337414821815 -0.12478396996895544 0.060250397316709316
-0.050481669252055314 -0.13594672853516557 -0.05924069824763028 -0.030586711379341464 -0.0573825727486704 -0.10129209072562899 0.15008197831965933 -0.15895850369540793
-0.023497413970242312 -0.007421497248640042 -0.19692236272550628 0.10263334419241095 0.17930618400581655 0.12404075135591862 -0.06779758999788879 -0.13761711439730606
-0.14161566787676252 -0.14397933425834347 -0.16810919603266 0.0073525071193668795 0.11761000183920634 0.0339837540352993 -0.08196687142376764 0.15428123914141598
0.02878114473589574 -0.15978542705211457 -0.06130663349960592 0.17750493405170448 0.1523185992572483 -0.06730778171452424 0.015468541438808462 0.06812897560666528
-0.026186713699384117 -0.23246608195645696 -0.14448974158950384 0.1686815716042434 0.05108637046825906 -0.052500913548335804 -0.06757755456203929 0.16753815282682996
-0.13426883987148844 -0.060343536830880194 0.11889133950769847 0.04245499883062776 -0.1480753427748454 -0.18738253928604148 0.09031854820557353 -0.09271978544422349
-0.1767725345938453 0.0007305801122800555 0.05942038234830121 0.10073347352184894 -0.10183440197105821 -0.0696908235290667 0.1684847979582398 -0.12725236509009252
0.17048616994595758 -0.21955357046372548 0.05723119529532869 -0.11460368484849512 -0.09803209386188047 0.10659813143103614 0.00978319234050975 -0.05527609319474781
0.03161755010412194 0.004071247550049259 -0.132897290241879 0.01742543741677926 -0.06858023001543474 -0.14873071392513193 0.12281583116930807 -0.02290272842383083
-0.050746106053855065 0.10024479397650093 0.026580142483443852 -0.24571179600052703 -0.027350898061401032 0.03644514294296839 0.051402967017771195 -0.05805221751305521
-0.14109591475536254 -0.06662723161516604 -0.18840226796397436 -0.15768044414124846 -0.14481831360642433 0.12396329672822971 -0.19763287778970193 -0.07843985323707782
-0.19776453887415904 0.006291553080736837 0.09382551616152063 -0.13074722056708615 0.02994475437893807 0.15181163923051189 0.1459135027496015 -0.08219836718154061
-0.21931850478667908 -0.16166732746951695 -0.09139224955067689 0.17924973197387198 0.17169092497200095 -0.12302482122679845 -0.09286190217807817 0.07058709949252123
-0.0012548134340106777 -0.13217528294394465 -0.030924185118419895 0.20634339801423462 -0.0646354232082818 -0.2016340975828469 -0.07002184971796986 -0.21185548855875785
-0.1618511236925843 -0.042649594692957114 0.006202544651632245 -0.08384017432521464 -0.1802549149238185 0.1034298044530804 0.2329591251855758 0.011702755035336656
0.12323209958767761 -0.12969139469382626 -0.10081659737773427 0.042760571506335186 -0.015130751516886937 -0.11300017559111508 0.07227602987186492 -0.23582140855558037
-0.034451252250127205 0.08549847596363634 -0.048530312064125586 0.2359187156337017 -0.01402561941799023 -0.14174391491997237 -0.25193309983140183 0.18966158755389745
-0.109854744870733 0.0012987814905400243 -0.044597026120801186 -0.030145447380666344 -0.06607645799940291 0.05713685642070949 0.14586553999694626 -0.1101625129748033
-0.15678355262786595 0.16779891254628437 0.06500820085135783 -0.0022442385487548683 0.023972468298726877 -0.04459667198008607 -0.03297214974442637 -0.17378942598117944
0.07711034039400834 -0.210061611198522 -0.007384962399587354 0.06584894428326546 -0.2104527399365262 -0.14070612227365037 -0.1277405857152042 -0.008486342248918895
-0.05544086369311899 0.08211972251048649 0.11855868690124453 -0.026050796409875836 -0.05995981972156581 0.03914316355841679 -0.033288211780162405 0.0437584059052896
0.14217672884845498 0.17744924571706408 0.05553406963547439 -0.03861297421869829 -0.1040656247620485 -0.08173141409690785 0.0908390010710395 0.14207395221278155
0.07085899091852368 -0.20963154321654975 -0.0858247138436756 -0.18213818848515786 0.13255911239505638 0.041061433451997344 -0.0672997506489481 -0.13754638794351168
-0.15716094354292626 -0.1128838554305633 -0.10118195894416404 -0.06073924862085807 0.1594748870769284 -0.08988171800075587 0.04438689341804617 -0.07317175702582096
0.13381842648091455 0.1497294183709431 0.13586842403347546 0.03845942060026499 0.06341246166808111 -0.10082847291247528 -0.14045667467144504 -0.20078753125922177
-0.05380061170746528 -0.11098778910628697 -0.14157758177840318 -0.2006980477094756 0.19482179198782867 -0.02543143807825318 0.1362368578676213 0.02836375290000067
0.12484973446713223 -0.19239754115525293 -0.006914423870001232 -0.060121821653907476 0.026823426471453107 0.17628970672709188 -0.18820689562731513 0.19535020962756178
-0.041358139926712265 -0.19872216958256952 -0.05119081454662599 0.17620307076381722 -0.04052466573208345 -0.31404687074954774 0.007215205198631867 0.06857419226652609
00000000: d639 96b4 555b c23f c454 5b82 a43a 993f
00000010: c3c6 d845 0334 ae3f 2155 2be6 06fb b9bf
00000020: 3683 427d 7ee5 adbf 42f7 364c da39 c63f
00000030: 5e3c a7b4 1acc c0bf b570 f83b 0c70 a2bf
00000040: 7b2e 7ca2 7305 b7bf fbd2 c1f7 0612 c53f
00000050: eaa2 2dec 81b3 bfbf 6400 c2d3 ae69 833f
00000060: 5afe 289f e688 c43f d4f8 4029 9d7a c1bf
00000070: 95e2 5b02 2e86 b43f 3886 d6cc f649 a53f
00000080: fa7f 5070 94ad b83f a591 cc4f 0e25 c2bf
00000090: 0c86 649c d6ff b9bf e256 3f86 da6a c2bf
000000a0: f382 a0b1 a55b 763f 7772 9e54 2aa2 bebf
000000b0: 504c 02bb 8912 a1bf 1a60 7934 4058 b43f
000000c0: 1d38 8954 7887 8c3f d108 a5cc 0988 a3bf
000000d0: ff50 8072 1c5c 8f3f ccdc e64b ea1a 333f
000000e0: b0ba b2bc 7a39 c23f e835 010c 246f b63f
000000f0: eeea 149e d7f1 bfbf 0db1 17dc 23d9 ae3f
00000100: 9e5a f8bc bbd8 a9bf cd42 87d0 b366 c1bf
00000110: 77ad 21fb cb54 aebf c80e 4474 1f52 9fbf
00000120: 0dbb a1a2 3f61 adbf 1392 0249 47ee b9bf
00000130: a50b 4de2 e235 c33f d67c 6593 c058 c4bf
00000140: 64ca 2bc2 b40f 98bf 7432 86ff 0066 7ebf
00000150: 9ee8 e081 c034 c9bf 9d17 c9c8 2d46 ba3f
00000160: e844 234a 81f3 c63f 77e7 717a 22c1 bf3f
00000170: 5ade c9cf 2e5b b1bf b468 da06 709d c1bf
00000180: dde1 1053 7620 c2bf 7e3f f831 ea6d c2bf
00000190: 0afe 8e25 9a84 c5bf 99cb f099 a91d 7e3f
000001a0: d0f6 9467 b01b be3f 1195 5a90 5166 a13f
000001b0: 55da 1ee8 c7fb b4bf 9bd6 3fd6 7cbf c33f
000001c0: 1749 87ed cd78 9d3f 167a c84f d973 c4bf
000001d0: 993c d143 9563 afbf 06bb 504f 7bb8 c63f
000001e0: dbf2 3005 2d7f c33f a1ed 3a31 153b b1bf
000001f0: 6fa3 c57c f8ad 8f3f f6fe 238a e670 b13f
00000200: 0bdb b69b b0d0 9abf 9653 b7d5 72c1 cdbf
00000210: 2601 5ecd a37e c2bf a232 bd94 5b97 c53f
00000220: 5472 dd24 fe27 aa3f f883 6655 66e1 aabf
00000230: 18a1 c93a c34c b1bf 259b 9ce3 e371 c53f
00000240: 0159 0faa b82f c1bf 3b5d 6d1a 59e5 aebf
00000250: 1f94 f6ae a96f be3f c1fb 0e5f a9bc a53f
00000260: 02ee 4701 22f4 c2bf 0e99 09ab 26fc c7bf
00000270: 12e0 c3ca 1d1f b73f d4d1 2cde 7bbc b7bf
00000280: 1eaf 747f 7ba0 c6bf 06a6 3cd8 8cf0 473f
00000290: b7b4 cd2d 596c ae3f ea89 633e abc9 b93f
000002a0: 31cb 12c2 d111 babf 7d7e e3ff 41d7 b1bf
000002b0: 9149 8dec e890 c53f d846 3335 ce49 c0bf
000002c0: ad49 2ba6 7dd2 c53f 404d 6ed6 541a ccbf
000002d0: 4c77 3540 684d ad3f 86e5 6cc6 aa56 bdbf
000002e0: a65d 189d a118 b9bf 589e 4fe0 034a bb3f
000002f0: cd46 39d9 3509 843f 624f 0be9 254d acbf
00000300: 728b 5aef 2c30 a03f e356 4d31 03ad 703f
00000310: 176f a845 c702 c1bf be53 4b4f f9d7 913f
00000320: ed85 1155 798e b1bf e00d 1ca8 9b09 c3bf
00000330: d9a0 4dba db70 bf3f 0c31 4716 d073 97bf
00000340: ab22 cdc3 64fb a9bf 1c2c b98f a4a9 b93f
00000350: 1bf5 c12a d337 9b3f e726 08f0 7b73 cfbf
00000360: 8781 c2b2 df01 9cbf 1d81 1312 f0a8 a23f
00000370: 8873 845c 7d51 aa3f 4e92 5b2f 05b9 adbf
00000380: 309b bc51 6e0f c2bf 5866 cf74 7b0e b1bf
00000390: 3ae1 b2c5 901d c8bf e717 676f df2e c4bf
000003a0: 6296 6610 6889 c2bf 9922 5a01 0fbc bf3f
000003b0: 234e 5cbd 084c c9bf c135 5b5c a214 b4bf
000003c0: c5f2 6231 5950 c9bf 1ea4 90eb 2bc5 793f
000003d0: 4cad 71f3 f204 b83f ca73 302e 53bc c0bf
000003e0: a127 fa72 d6a9 9e3f 6cd7 d254 906e c33f
000003f0: 295b 2d2d 4bad c23f 184e d4c2 f30a b5bf
00000400: 32b3 bbf6 a012 ccbf 241a 28d6 83b1 c4bf
00000410: 3d93 ed82 7b65 b7bf 7980 52bc a7f1 c63f
00000420: 7a2a e3dd f7f9 c53f b6ed c3ff 8d7e bfbf
00000430: c531 e630 ccc5 b7bf 2c02 d703 ff11 b23f
00000440: ec97 58aa 118f 54bf 98b9 caa2 1eeb c0bf
00000450: 05cd f4ee 96aa 9fbf 28bb 1be1 7569 ca3f
00000460: 84ba d774 f28b b0bf fc3a 7067 25cf c9bf
00000470: 9f4a 8bb2 f3ec b1bf 8242 6ba5 141e cbbf
00000480: d64d 8aa1 89b7 c4bf 0bae c9ec 2ad6 a5bf
00000490: d74f e4e6 d667 793f 2157 d1b6 8c76 b5bf
000004a0: 8c41 45d2 9712 c7bf 83c2 8e2b 607a ba3f
000004b0: 5f08 fdc7 9ad1 cd3f 2eef 3231 9df7 873f
000004c0: cce6 8b8d 238c bf3f 9f2c 6445 ba99 c0bf
000004d0: 56a1 a1d4 1dcf b9bf 1320 5bb0 b6e4 a53f
000004e0: ca73 6e17 dffc 8ebf 2829 9b5a 94ed bcbf
000004f0: db99 9590 ae80 b23f 0ab0 b85a 652f cebf
00000500: fbea 7033 98a3 a1bf 1f25 1f66 3ae3 b53f
00000510: 3c35 5c0e f7d8 a8bf 089e 14a0 9532 ce3f
00000520: 99ba a6c5 76b9 8cbf 3780 7e23 aa24 c2bf
00000530: cd91 2302 ac1f d0bf aafb ecb5 d446 c83f
00000540: a1bc 87c8 701f bcbf 017f b201 7c47 553f
00000550: 101a 60e1 6bd5 a6bf 7635 7eba 72de 9ebf
00000560: 9398 2402 63ea b0bf 9946 72c3 0a41 ad3f
00000570: db3b f3d5 b8ab c23f 19d2 7846 9c33 bcbf
00000580: 3d2f 8bc3 7b11 c4bf 6667 d84c 6f7a c53f
00000590: 98dd a0a0 60a4 b03f db7d 7b65 8262 62bf
000005a0: 59c4 631d 3d8c 983f fc6e 54ff 5fd5 a6bf
000005b0: 5989 a9c1 b9e1 a0bf 6169 7d5e bb3e c6bf
000005c0: 41fa 2cd6 80bd b33f 6e11 1f83 4ce3 cabf
000005d0: bb8e d0bf b13f 7ebf 6e39 2cf6 79db b03f
000005e0: bac3 b089 1df0 cabf 3a93 c180 a802 c2bf
000005f0: 5464 02b3 cd59 c0bf d1c8 5f93 4961 81bf
00000600: a50e d9b0 be62 acbf b804 8a52 cc05 b53f
00000610: c3c5 e5b2 dc59 be3f 5eef 755a 0fad 9abf
00000620: bd6d 8eb1 0db3 aebf 87d5 b09e 920a a43f
00000630: 3251 e009 270b a1bf a59d 9374 8067 a63f
00000640: 0f04 54d8 d832 c23f 0bff 8629 a8b6 c63f
00000650: 34da cb29 f66e ac3f 86f2 f06a 14c5 a3bf
00000660: 78a5 fd76 0ba4 babf 1e20 9a96 59ec b4bf
00000670: 192a cd8a 3941 b73f c505 2fb1 7a2f c23f
00000680: 0a64 9f98 d023 b23f 9c9c 29d7 34d5 cabf
00000690: 4eab 25c3 9bf8 b5bf 71be 72dd 4d50 c7bf
000006a0: dd03 436e b2f7 c03f 353e 9b13 0106 a53f
000006b0: 9ff1 1074 8e3a b1bf 673d f3ba 1e9b c1bf
000006c0: f2d8 5c8c d91d c4bf dd16 52d3 f4e5 bcbf
000006d0: 2043 9c94 0fe7 b9bf 8a05 d2fc 3619 afbf
000006e0: 75ac 4350 ac69 c43f 8250 52ff 7c02 b7bf
000006f0: d5fd 33ff e0b9 a63f bcb0 6a5f 62bb b2bf
00000700: 073a ab52 f620 c13f a47e 9365 552a c33f
00000710: 0534 e4f2 2264 c13f d309 6703 f4b0 a33f
00000720: 7ff4 0591 cc3b b03f fd29 aa11 e5cf b9bf
00000730: 9700 1cfc 7bfa c1bf c8f9 19e4 67b3 c9bf
00000740: aca3 93f7 c08b abbf 5383 771c b269 bcbf
00000750: 84e1 cad5 361f c2bf 6341 a43f 79b0 c9bf
00000760: 2c63 91a4 ebef c83f 376b 58eb b20a 9abf
00000770: d48e 8698 3570 c13f f6a9 633c 630b 9d3f
00000780: a15b 73f6 26f6 bf3f 26db 8b8d 7ba0 c8bf
00000790: 3603 4786 4c52 7cbf a417 8f93 49c8 aebf
000007a0: 07a1 d8ad 9977 9b3f 48d4 813e a990 c63f
000007b0: b2ed ccde 2917 c8bf dcfd ce54 3c01 c93f
000007c0: c636 d1e4 e42c a5bf 6574 ac61 ba6f c9bf
000007d0: 1fae aab4 ae35 aabf c353 317d d28d c63f
000007e0: 9e52 0024 a6bf a4bf d6f2 d10b 5819 d4bf
000007f0: 24f8 cae5 b08d 7d3f 7a64 2209 148e b13f

linear.bias f8 [32]
0.11914204060260603 -0.0393357574960979 -0.08562673628161988 -0.025994196534162337 0.03499084710793291 -0.09744397550800206 0.10940255224755463 0.0257140249033638
-0.05699589848517936 -0.08264050632711176 -0.17156291008010563 0.10230992734460115 0.1148393005121315 0.10600675642536862 0.11092494428156315 0.07954238354922588
0.07654477655963174 0.10060407221598526 -0.11052968353040822 -0.04799862205986758 -0.0237977504715904 0.14709280431643554 -0.1522698402405594 0.0007610172036149073
0.03930059075350272 -0.17478799820271873 0.1250241845845369 0.05083748698240657 -0.13481751084405297 -0.012679561970360456 0.005353391171776428 -0.1462655812501132
00000000: 9086 f7bf 1780 be3f 56ac 0400 d123 a4bf
00000010: 7026 fe3f a2eb b5bf 3c06 0000 399e 9abf
00000020: 15cf f9ff 51ea a13f 9dc4 ff9f 16f2 b8bf
00000030: c48e 0040 ce01 bc3f 37ae 0800 c754 9a3f
00000040: 8cfd ffff 902e adbf 9af4 ff9f ed27 b5bf
00000050: 0d15 0000 c6f5 c5bf 844e 00c0 fb30 ba3f
00000060: 3dc0 febf 1b66 bd3f d182 0040 4223 bb3f
00000070: cdfb ffbf 9365 bc3f 6c64 fdbf e35c b43f
00000080: b6d4 0040 7098 b33f 9b17 0340 30c1 b93f
00000090: d515 0060 ac4b bcbf 9d19 0080 4693 a8bf
000000a0: a5b3 f9ff 6f5e 98bf e30c 02e0 efd3 c23f
000000b0: 620b 0000 947d c3bf 11f5 2700 e0ef 483f
000000c0: 67e2 ffff 341f a43f 38ca 0100 745f c6bf
000000d0: a4f4 ffdf ca00 c03f 5522 0000 5f07 aa3f
000000e0: 366d 0040 b341 c1bf 3b24 ecff bdf7 89bf
000000f0: d36c 1600 70ed 753f 17f5 ff9f d4b8 c2bf
