pretrained/models/pretrained_mobile.pt (torch, 23695 bytes, 10 tensors)

batch_norm.weight f8 [100]
1.2011928331592023 1.1729703899909603 1.1816142531808742 1.1858147265385979 1.1768628850516147 1.160592358314577 1.199052797188315 1.2113042552141202
1.2393665216261112 1.1957724655212223 1.209235526331211 1.2722100404393633 1.2424700208888177 1.2959322265228572 1.2534654212842766 1.275754704302517
1.4222239312394351 1.3152101572348707 1.4137319254942065 1.370098917385851 1.406991169254578 1.396833547985554 1.4185275493158436 1.408706124706515
1.385672810056421 1.3701045853085783 1.356735034246892 1.331841456893115 1.3097088821885046 1.2865649717444325 1.2519650126436186 1.2357455899830054
1.2219185485132122 1.2040988795412069 1.193101574831031 1.208713030391593 1.2132658235229683 1.2249878537827585 1.2132642425559075 1.2030847294713805
1.1951244933099368 1.1872651697925702 1.1757717463804414 1.1727273233813664 1.1723531748695912 1.1479043025459177 1.1300671862662834 1.1214642097975367
1.1196600380501478 1.101167146498032 1.0746143078481707 1.0741463368905229 1.0616898997666337 1.0413080199695999 1.037000951255014 1.0304044284094545
1.0103733085530882 1.004519276166186 1.0003217430058449 1.0033452422417573 0.9950075270625744 0.9882685391081166 1.004441506709256 0.9822944285585843
0.9721548166549125 0.9721250380519499 0.9389182626664656 0.9551330867731694 0.9455905253429211 0.9291672436102983 0.9241985947827852 0.9271571888891954
0.9380623147627092 0.918831692554937 0.925587258436277 0.911508239315773 0.888970596106951 0.8933258441265931 0.8909478882223777 0.8791130087743975
0.8785900893557107 0.8702123605919069 0.8671078389185716 0.8658621505217412 0.8701369768565865 0.8792047488485834 0.8744629149734081 0.8646991175703271
0.8329352346252039 0.8143451204499518 0.8131109678890572 0.8111965730768949 0.8187380749153519 0.8512230063881805 0.9170959054459674 1.0043682563602194
1.0866458423157725 1.065145058964133 0.9830644280510976 0.921508417505132
00000000: d6bb e9f9 1538 f33f 2a00 8399 7cc4 f23f
00000010: 9c63 de58 e4e7 f23f 4c93 d9dc 18f9 f23f
00000020: 2bc4 322d 6ed4 f23f 8e2d ef4a c991 f23f
00000030: 3e9e 61fc 512f f33f 9067 1a92 8061 f33f
00000040: 4643 62fd 71d4 f33f 5cef 0d4f e221 f33f
00000050: f70f ec59 0759 f33f 4847 55ea f85a f43f
00000060: 84a5 9f3e 28e1 f33f 5df8 2b6e 23bc f43f
00000070: 4653 f1c1 310e f43f cd28 cbc3 7d69 f43f
00000080: da30 84e1 6dc1 f63f 770d 4bce 190b f53f
00000090: 8af0 145e a59e f63f d750 a7d7 eceb f53f
000000a0: f058 1b2c 0983 f63f 8ddb 6822 6e59 f63f
000000b0: d095 8cf1 49b2 f63f 4ca1 f46e 0f8a f63f
000000c0: 4661 a240 b72b f63f f1ff 1fc9 f2eb f53f
000000d0: 70d8 96cb 2fb5 f53f bb01 cdfc 384f f53f
000000e0: 4a7c 044d 91f4 f43f df24 dd26 c595 f43f
000000f0: 2ba6 1077 0c08 f43f a573 f22a 9dc5 f33f
00000100: 30d7 c376 fa8c f33f c379 cc2f fd43 f33f
00000110: 3749 4bad f116 f33f c17e 7c79 e356 f33f
00000120: a62b 966c 8969 f33f 27e8 1fdd 8c99 f33f
00000130: fcf0 32c4 8769 f33f 6b58 f6c5 d53f f33f
00000140: d0a2 56dc 3a1f f33f 0c06 3fc3 09ff f23f
00000150: a13c e408 f6cf f23f 01c7 d0b9 7dc3 f23f
00000160: 9dd3 1667 f5c1 f23f 60f5 e5e6 d05d f23f
00000170: 2bbe 7454 c114 f23f 3e70 8b74 84f1 f13f
00000180: 1904 e1a4 20ea f13f 1138 1a71 619e f13f
00000190: 5958 c0c5 9e31 f13f 0602 c111 b42f f13f
000001a0: ffdb 5f8c aefc f03f a74f 2d99 32a9 f03f
000001b0: 93fa 384f 8e97 f03f 40c1 9a5a 897c f03f
000001c0: 0fca cf33 7d2a f03f a45d f5cd 8212 f03f
000001d0: 5001 3b5f 5101 f03f a268 a0bd b30d f03f
000001e0: 323e 8006 1ad7 ef3f 6552 e457 e59f ef3f
000001f0: c1fa e041 3112 f03f d577 b6b9 f46e ef3f
00000200: b2d0 056b e41b ef3f c6c9 c1f7 a51b ef3f
00000210: a0a0 f84f 9e0b ee3f db95 6043 7390 ee3f
00000220: 762b b80f 4742 ee3f 2543 7af1 bcbb ed3f
00000230: 2f3d 73ee 0893 ed3f f2f8 908d 45ab ed3f
00000240: 3482 7042 9b04 ee3f 31a8 c1b8 1167 ed3f
00000250: e07f 922b 699e ed3f 48aa bc53 132b ed3f
00000260: c051 ac76 7272 ec3f fd3f a614 2096 ec3f
00000270: 3d5f 4b25 a582 ec3f 0893 c59a b121 ec3f
00000280: 7beb 8bf6 681d ec3f 7f26 aa97 c7d8 eb3f
00000290: 0656 48f0 58bf eb3f 34b9 6a8a 24b5 eb3f
000002a0: 8a75 5480 29d8 eb3f a55c 59ff 7122 ec3f
000002b0: 0d05 aca6 99fb eb3f 1407 db7b 9dab eb3f
000002c0: c2d7 0ccb 67a7 ea3f d1ab 7f7f 1d0f ea3f
000002d0: eb46 e34a 0105 ea3f dec2 ff83 52f5 e93f
000002e0: c00b f830 1a33 ea3f f647 c107 383d eb3f
000002f0: 35f3 2583 d958 ed3f af52 e372 e411 f03f
00000300: 344a 31c0 e662 f13f 7af3 9b8b d50a f13f
00000310: a2e4 0a88 4375 ef3f 508b 8538 ff7c ed3f

batch_norm.bias f8 [100]
0.05048335842093733 0.022358443177457058 -0.06362578464558352 -0.10873055916126195 -0.1567575555787937 -0.14146820658932108 -0.18498486419597066 -0.16624635774424515
-0.18312621318137473 -0.2868859514745619 -0.2955022012410382 -0.21407971407783005 -0.23162571404655158 -0.2534113737123791 -0.34716852419351535 -0.34799857630445563
-0.29909241606604825 -0.35526377398819886 -0.3307861120940984 -0.33926914803978464 -0.34355906650529267 -0.3453439391943078 -0.34216647252935073 -0.3392566129991431
-0.32536271086137586 -0.30987639285530544 -0.2908535947458554 -0.2741097670746644 -0.25584166352119364 -0.2358812851248422 -0.21556281917280973 -0.19849101214628523
-0.18803627797743283 -0.1720614718797809 -0.15806693180577291 -0.15986125508063742 -0.15647666493406873 -0.15422886728443944 -0.15244260803006165 -0.1441820839547198
-0.14068954067160097 -0.13788553326902328 -0.1261471107326264 -0.11938347358636192 -0.11616916434143248 -0.11142673354350159 -0.10172148218171975 -0.09703997401565456
-0.08909268948684254 -0.0717139155577174 -0.057524055106052595 -0.040647300199490775 -0.021484590459593937 0.001812899728184998 0.027980309655106846 0.06174797712439899
0.09885651892083511 0.1370428640205182 0.17924563600334292 0.21437896726639416 0.2455163943875721 0.277214861663489 0.30594946664270245 0.3267641485700335
0.3448190681468463 0.3555819200011055 0.3630467929498435 0.367616755404961 0.3706622680532878 0.37277794766893985 0.3764838853023971 0.3772466356307592
0.3785527404613597 0.37520169853206287 0.3730319344047135 0.36672881562723153 0.36027130258819307 0.35154586866905607 0.3413823873954392 0.3299159420624695
0.3153989512701664 0.2993753713800379 0.27891490594376583 0.2612563079387445 0.23856886124517349 0.21108410040482903 0.178506382871367 0.1417305716545272
0.09988932816888002 0.05770684010948422 0.01456286756651695 -0.03696392972526171 -0.09834939626189282 -0.15813917043480588 -0.20260694371198879 -0.228932945604417
-0.2089187203631662 -0.2220306656998744 -0.22933194279161834 -0.014113672680015895
00000000: 1202 d26a f4d8 a93f 0155 f2b8 21e5 963f
00000010: d630 3c88 c749 b0bf d064 ac13 c4d5 bbbf
00000020: 2950 4eaf a110 c4bf b6c9 5c54 a11b c2bf
00000030: 5a04 fd82 95ad c7bf 659a cb86 8f47 c5bf
00000040: 0ac1 5304 ae70 c7bf 2df7 d0e4 565c d2bf
00000050: 347b 8e10 82e9 d2bf 8ec4 59cd f666 cbbf
00000060: 160d 5f51 e9a5 cdbf d0dc a156 e437 d0bf
00000070: a326 6754 0238 d6bf 860f 12d2 9b45 d6bf
00000080: 310f 5f84 5424 d3bf 02e7 ae44 a4bc d6bf
00000090: b391 5a83 992b d5bf 9fd9 d7f1 95b6 d5bf
000000a0: fe9b b82a dffc d5bf ff86 2d77 1d1a d6bf
000000b0: 9447 5334 0ee6 d5bf 761d 725e 61b6 d5bf
000000c0: 6b33 9f1e bed2 d4bf 4c6c 47cb 03d5 d3bf
000000d0: 0fe1 5665 589d d2bf 2064 46b1 038b d1bf
000000e0: dec6 71b6 b55f d0bf 48c1 aca2 5b31 cebf
000000f0: fc56 4afd 8f97 cbbf 16ef db4a 2768 c9bf
00000100: 2cf4 2fa0 9211 c8bf 4309 503d 1c06 c6bf
00000110: 64a9 5787 893b c4bf 5403 3c67 5576 c4bf
00000120: 0f4f 3d67 6d07 c4bf 39fb 8a82 c5bd c3bf
00000130: a2c6 0048 3d83 c3bf 4d98 a0fb 8e74 c2bf
00000140: e371 0968 1d02 c2bf 5bb1 fdaf 3ba6 c1bf
00000150: 486f 8aa9 9625 c0bf 707e bc52 ea8f bebf
00000160: 146d a629 43bd bdbf 952d 7860 7686 bcbf
00000170: fa68 4547 6b0a babf 084b cd9a 9cd7 b8bf
00000180: b69e a84b c7ce b6bf 750e fdd9 d75b b2bf
00000190: 4bdd d3fe ca73 adbf 6b15 0e12 b9cf a4bf
000001a0: be50 9175 0e00 96bf 1f68 c842 dab3 5d3f
000001b0: 9240 9acb dea6 9c3f a6d8 af4c 6e9d af3f
000001c0: 96ea c22b a94e b93f 7b24 8fdd 9e8a c13f
000001d0: d6e3 4a60 85f1 c63f 6401 ae1e c570 cb3f
000001e0: 0c63 43ca 146d cf3f 93d4 3367 e3bd d13f
000001f0: 1361 5d12 ad94 d33f e144 e72c b4e9 d43f
00000200: eb95 2eff 8311 d63f 6108 5dab dac1 d63f
00000210: e3c8 a89d 283c d73f 9542 7b6d 0887 d73f
00000220: 879a c93b eeb8 d73f 3f1e 7a09 98db d73f
00000230: 6111 b6dd 4f18 d83f 52d9 a312 cf24 d83f
00000240: 0fef 0546 353a d83f be53 26fc 4d03 d83f
00000250: 6c70 a855 c1df d73f 5daa 6723 7c78 d73f
00000260: 566e 935d af0e d73f 798f 3e3e ba7f d63f
00000270: d9cd 5283 35d9 d53f ef96 65c1 571d d53f
00000280: db79 3915 7f2f d43f 0a87 5351 f728 d33f
00000290: 134e d9e7 bdd9 d13f 851e 9e60 6cb8 d03f
000002a0: 772c 72a8 6c89 ce3f 83df f8c5 cd04 cb3f
000002b0: bca6 4712 4cd9 c63f 01bf 0c35 3a24 c23f
000002c0: 946a b4d5 5892 b93f 3e2d 0d3e c08b ad3f
000002d0: cf2d 79ff 22d3 8d3f bb70 9aaa efec a2bf
000002e0: 5cb3 8610 6d2d b9bf b9f5 9d82 e73d c4bf
000002f0: 9ebe 973a 06ef c9bf 9388 2cbd ac4d cdbf
00000300: 21b1 bd3f d9bd cabf cced f137 806b ccbf
00000310: 22ec 1bc5 bf5a cdbf 5e6a b214 a1e7 8cbf

batch_norm.running_mean f8 [100]
13.72720313699002 0.31167170808219724 0.3111190434401631 0.3076688742413894 0.30770247778222143 0.3071334873921808 0.3035666457626679 0.3027140245680193
0.30331271087598527 0.30276079589309507 0.3003821054248228 0.2998583740830736 0.30053158372987515 0.30082745586577386 0.2991585287726144 0.29916560868758113
0.2969563332874672 0.2949050572092589 0.29470464994815315 0.29193540477516156 0.289670937774713 0.2847461434454479 0.28071970481403596 0.27836478335259873
0.2737615086745073 0.26970476119142267 0.26447400077541006 0.2605811468648875 0.2560647648199246 0.250284370285695 0.24569674382843912 0.23938695419745507
0.23279762487056863 0.22787563478543726 0.222577462074872 0.21672518019155756 0.211620192564794 0.20595559600831945 0.19921809810627486 0.19402059034763408
0.18881088639227034 0.1840554369287826 0.17905169595046805 0.17731400054969038 0.16810120026844225 0.1623460535875036 0.15885086924347008 0.15221906049007633
0.1473298611301436 0.1422590775511127 0.13846040740479632 0.13267348361775633 0.1274545728930536 0.12175214199110854 0.11746536743370746 0.11310268052889733
0.10926474649673258 0.10456890654072165 0.10044302228986296 0.09586368419248974 0.09246132334264166 0.0872697464025195 0.08404761464986452 0.0805830704045477
0.07610722847718772 0.0722460259743358 0.06870723618636237 0.06521660248550129 0.061284147066190515 0.05702546542468446 0.05376577443264016 0.04984170247829889
0.04751907594215768 0.044257466355858026 0.042699454430066154 0.038313141206464535 0.03764512249850532 0.033526313778278784 0.03131761013794969 0.028779447367061596
0.02727333183674437 0.02594270942868169 0.023869479996213482 0.021560963539708235 0.019966876128068706 0.018841180441286437 0.017970745264196345 0.01648710131751901
0.01634900791896655 0.01423479452421606 0.01331018992859126 0.012481480233616928 0.011893810609317752 0.011550139320342868 0.010709124137111328 0.010182939872038917
0.009672051973359179 0.008976642298700184 0.008219638749390386 0.0077778846074520345
00000000: 6cd7 35f8 5374 2b40 b64b 53e4 6df2 d33f
00000010: 5f40 2fd9 5fe9 d33f 354a 37ca d8b0 d33f
00000020: 7b42 bebb 65b1 d33f 2ac6 f636 13a8 d33f
00000030: ba40 edcb a26d d33f 0cda e3a4 aa5f d33f
00000040: f919 6bb7 7969 d33f 27cb 37d1 6e60 d33f
00000050: 749b c6dd 7539 d33f 1496 872d e130 d33f
00000060: cb3b e2d2 e83b d33f 26ac 2bcd c140 d33f
00000070: 7076 59d0 6925 d33f 88ab 5982 8725 d33f
00000080: e8d2 f322 5501 d33f b5e1 0876 b9df d23f
00000090: 9c69 60e4 70dc d23f 2272 03d6 11af d23f
000000a0: ce04 16f9 f789 d23f 24a9 70e3 4739 d23f
000000b0: 4038 e1c7 4ff7 d13f e2e1 3686 bad0 d13f
000000c0: c047 aafd 4e85 d13f 2f21 39c2 d742 d13f
000000d0: 2440 fe5b 24ed d03f 8f49 ef8b 5cad d03f
000000e0: f8ce a377 5d63 d03f cded 44bc a804 d03f
000000f0: f508 bdab fd72 cf3f c5fd ae51 3ba4 ce3f
00000100: abe9 b304 50cc cd3f 74b6 7a5f 072b cd3f
00000110: c218 3814 6b7d cc3f b23b 9294 a6bd cb3f
00000120: f797 1ed7 5e16 cb3f 7f57 a4c2 c05c ca3f
00000130: 73a2 1188 fa7f c93f 0498 25ad aad5 c83f
00000140: 4e7f 1783 f42a c83f 594b 21e9 208f c73f
00000150: ba46 337d 2aeb c63f acee bda4 39b2 c63f
00000160: 8d20 c912 5784 c53f be80 6567 c1c7 c43f
00000170: 9ac2 2bac 3955 c43f 16fd 5007 ea7b c33f
00000180: ad9b a373 b4db c23f 6d11 d2a2 8b35 c23f
00000190: 7e16 cc14 12b9 c13f c8a2 97d8 71fb c03f
000001a0: 6f91 2673 6e50 c03f c2db 11fc 252b bf3f
000001b0: 7557 8ad7 3512 be3f 2428 f619 4cf4 bc3f
000001c0: 8927 cf40 c6f8 bb3f 6458 c521 07c5 ba3f
000001d0: 14ab d847 a2b6 b93f bb16 7bbc 858a b83f
000001e0: 7fca e697 8bab b73f 08a2 ba62 4f57 b63f
000001f0: ce5c 3afc 2484 b53f 37b1 ff93 17a1 b43f
00000200: fd78 4c69 c37b b33f 9e63 d32e b77e b23f
00000210: e441 6b24 cc96 b13f 96da d406 09b2 b03f
00000220: c938 d3be a260 af3f c18e 131a 7132 ad3f
00000230: 8c23 aa05 3087 ab3f 4015 3e04 da84 a93f
00000240: 7425 379a 6b54 a83f 8f57 3425 eaa8 a63f
00000250: 2d19 abf0 b3dc a53f 5c43 fab0 c79d a33f
00000260: 2851 f8b3 3846 a33f 555e 776a 5c2a a13f
00000270: 96a9 a99e dc08 a03f da34 f404 5c78 9d3f
00000280: 75c6 2a51 8aed 9b3f fa65 43c2 b990 9a3f
00000290: a336 d3af 3d71 983f b7da 17c5 1314 963f
000002a0: c5b2 e45f 3272 943f 78e1 4037 1a4b 933f
000002b0: 3123 c74c ec66 923f 8fbb dba3 fee1 903f
000002c0: c305 5659 cbbd 903f 8305 93c7 2127 8d3f
000002d0: 1025 9373 5f42 8b3f b4be 45eb e38f 893f
000002e0: 5715 bc3c c85b 883f ba32 2975 99a7 873f
000002f0: 7b67 804f aaee 853f 5101 d20d cbda 843f
00000300: 3c4c 49d7 f0ce 833f 3174 ce88 5862 823f
00000310: 5195 e83c 75d5 803f b34b 5600 b4db 7f3f

batch_norm.running_var f8 [100]
1841127.3191119698 0.14654091047015705 0.20355745655152355 0.1415551974651008 0.14036731002762853 0.1535837190248977 0.14016602876792453 0.14023690001453742
0.14172734449082294 0.13911734420900732 0.13931872683779056 0.1389882892039043 0.13907615853003574 0.13896836243751634 0.1387588647594971 0.13912289856886556
0.13854021715415601 0.1381902046949194 0.13840090504584115 0.13794496973820472 0.13771793001034682 0.1368578386484803 0.13592440245037934 0.13564655170165046
0.13490191368471308 0.15145516273529064 0.1328895101323218 0.13193766070501736 0.13119381857384332 0.12969285226439395 0.1355549004400844 0.12720503134429226
0.12524384438991504 0.12577401706790375 0.1224621757617739 0.12037670487967218 0.11880476996197581 0.11674632957371678 0.11422048408577457 0.11240920117201887
0.1103629825571096 0.10886225587578552 0.10697269141789223 0.3574817548708061 0.10264467557932758 0.10009969549175654 0.183076790356889 0.09644805105555453
0.09353580760544937 0.09113184055719833 0.0894207775640631 0.08671008493284667 0.11195360760434947 0.08078613073973626 0.07857132385839305 0.07636645897387996
0.07440689803297697 0.07181349997482592 0.06952605089699261 0.06686648647080391 0.06524282422405862 0.07585443377351964 0.06023482440039435 0.05811347767380808
0.0554092023287726 0.053100107266436276 0.061108800252492344 0.049867812677737856 0.04617220025428465 0.04335025629006125 0.04118108072997706 0.08435022604952719
0.03725252106691774 0.03452871973999382 0.13354238219187425 0.030158307699824912 0.18710299386269463 0.02667920765337212 0.024985336150557334 0.023050066187781427
0.0219546206937241 0.021305508187968156 0.019466875487253413 0.01768769995976089 0.016335422765601883 0.015442312266153566 0.014716458296983133 0.013539669684050524
0.04440272613737371 0.01173918602022415 0.01100452983845212 0.010356578068855185 0.009914078396798337 0.009648410893626579 0.008965947105780228 0.008560963883095797
0.00812778798938598 0.0075709914962735995 0.006926324877607771 0.006555416560508763
00000000: 7252 b151 e717 3c41 e468 ff40 dac1 c23f
00000010: 3b74 5fb5 2b0e ca3f c880 d80f 7b1e c23f
00000020: 1682 ff56 8ef7 c13f 827a 349d a1a8 c33f
00000030: 59c2 c8de f5f0 c13f 429f a061 48f3 c13f
00000040: c1bc c422 1f24 c23f 538f d7dd 98ce c13f
00000050: ac8c be2f 32d5 c13f 7131 5446 5eca c13f
00000060: a818 4560 3fcd c13f f584 ec1d b7c9 c13f
00000070: 4208 16b9 d9c2 c13f 322f bd75 c7ce c13f
00000080: a5cd ed92 afbb c13f 9d67 e574 37b0 c13f
00000090: ed4f 74f0 1eb7 c13f a92e d646 2ea8 c13f
000000a0: 10cf bbba bda0 c13f db25 99c2 8e84 c13f
000000b0: 2e59 a087 f865 c13f 6ed7 afbf dd5c c13f
000000c0: c5c9 b845 7744 c13f 4614 61fd e162 c33f
000000d0: e2f8 ff01 8602 c13f 995d eb50 55e3 c03f
000000e0: 4a23 1b84 f5ca c03f 6b11 807f c699 c03f
000000f0: 06f2 19ec dc59 c13f 7754 c124 4148 c03f
00000100: 2e0a d783 fd07 c03f ee20 ffec 5c19 c03f
00000110: 92d1 e45f ae59 bf3f 3d8f a8fa 01d1 be3f
00000120: fc71 9849 fd69 be3f 8078 7263 16e3 bd3f
00000130: 4083 aebb 8d3d bd3f 75a5 cd72 d9c6 bc3f
00000140: f694 c598 bf40 bc3f 345a c194 65de bb3f
00000150: 6877 34f3 8f62 bb3f 258e 8527 fbe0 d63f
00000160: 12c4 b8e4 eb46 ba3f ee05 7a36 22a0 b93f
00000170: 7ea7 9e6d 0f6f c73f 5fea 0bc9 d1b0 b83f
00000180: 439c ab72 f6f1 b73f 9e44 d192 6a54 b73f
00000190: 6975 38b3 47e4 b63f 051c 05d3 a132 b63f
000001a0: 3074 54db fda8 bc3f 465f 7f5d 66ae b43f
000001b0: 980e 6012 401d b43f 21dc cd93 c08c b33f
000001c0: 5900 a699 540c b33f d29c cd99 5e62 b23f
000001d0: e196 d292 75cc b13f ed2c 977c 291e b13f
000001e0: 534c 57f4 c0b3 b03f 7059 5038 326b b33f
000001f0: e88e c251 19d7 ae3f b7b4 21bc 0cc1 ad3f
00000200: 968e cc4f 985e ac3f f932 3ff0 ef2f ab3f
00000210: d31c 2a15 a749 af3f 3ddb 2521 4688 a93f
00000220: 092d 27f4 e1a3 a73f ebfb 133a 0132 a63f
00000230: e0fb e5c5 af15 a53f 3cfd 4af6 f997 b53f
00000240: c917 5a2f c312 a33f 0faf 1c94 bfad a13f
00000250: aa6f 12b2 ea17 c13f 0f04 18c5 d1e1 9e3f
00000260: fedd cfab fdf2 c73f b1ee 6a51 cb51 9b3f
00000270: 26b8 9586 c195 993f 6de3 c9c1 6f9a 973f
00000280: 1ca5 80a7 457b 963f 1c64 9173 1cd1 953f
00000290: 94cf 4ae6 1fef 933f 127b 7973 b91c 923f
000002a0: 0aaa 2daa 3bba 903f 0512 4311 38a0 8f3f
000002b0: 57b5 c998 a923 8e3f c5e0 eeb3 afba 8b3f
000002c0: cefd 3941 f4bb a63f 35e5 4ee0 b60a 883f
000002d0: 3cb0 1cfe 8a89 863f d568 d560 d435 853f
000002e0: 70b3 df13 d54d 843f 0cd3 f8c9 8bc2 833f
000002f0: b5a3 c60c bd5c 823f 4179 331f 6988 813f
00000300: 8c6c d33c 4da5 803f fa22 ff8d c202 7f3f
00000310: 5bf1 4a2d c75e 7c3f a51d d33b dad9 7a3f

rnn.weight_ih_l0 f8 [32, 2]
-0.21685142226657267 -0.24079074755447497 -0.17257358152251068 -0.18850282821690534 0.02742201853227733 0.18020736565235332 -0.3136037672080101 0.1317264739271821
-0.2635539910669931 0.1338012557231436 -0.18456049273492786 -0.011781139543285924 -0.14279903124990181 0.1456533072069508 -0.1490604458062737 -0.02322428946211606
-0.11435416222956625 -0.2891535569119888 -0.348135972576898 0.1155292564195256 -0.13641233388457713 -0.20818976434584444 0.021481571571947078 0.12645433032621645
0.09951198096109719 0.013948613894980233 -0.3412497908524703 0.12497461410709404 -0.32805601606240836 0.07618724873166403 -0.33920070010053166 -0.2185592559108101
0.056968574985924544 -0.13909024520208307 -0.06899624686639098 0.18252169903300078 0.13396504535409107 -0.12207104703191146 -0.21058724388769368 -0.27686023474447147
-0.3403600296458416 -0.02825720900725476 -0.32840916595078407 0.13108996758823063 -0.17988045656568874 0.27365393087452405 -0.10934356776713729 -0.21173584034109091
0.36392546715608587 -0.21543221941208757 0.3200987725284835 0.40347121131909014 -0.014452306425748218 -0.06886070070502157 -0.30743866451628404 0.1697255170682063
-0.1226428297693886 -0.08182401723597009 -0.1768198515602661 0.01860734759617382 0.018780596064925638 0.22239818469944048 -0.031494153623809445 0.0873333383575011
00000000: 16ee 5c93 c9c1 cbbf a582 f630 3bd2 cebf
00000010: 9879 6520 e416 c6bf 1c93 3255 dc20 c8bf
00000020: c14f 2583 8414 9c3f 69d2 fcf2 0811 c73f
00000030: 28e4 0389 1512 d4bf 356f c4c0 69dc c03f
00000040: 953b 178f 11de d0bf 3050 bf48 6620 c13f
00000050: 820f 37a0 ad9f c7bf 275b 62c8 b520 88bf
00000060: 2d35 8f18 3d47 c2bf 4009 817f c4a4 c23f
00000070: 72bc eea5 6914 c3bf 9bba d9ae 1bc8 97bf
00000080: bdfd ef7a 5046 bdbf 5961 9deb 7d81 d2bf
00000090: fcd9 311a dc47 d6bf 6095 0d4a 5393 bd3f
000000a0: ca13 6798 f575 c1bf c319 9d52 f6a5 cabf
000000b0: 6008 79dd 43ff 953f b026 98ce a72f c03f
000000c0: 13c0 c9ff 9d79 b93f f31b 0744 1791 8c3f
000000d0: d49a de5c 09d7 d5bf 8491 6b18 56fe bf3f
000000e0: 3f9f 0fa9 defe d4bf 17ba aced 0181 b33f
000000f0: d792 6dda 76b5 d5bf ca00 30ec bff9 cbbf
00000100: beb4 ed2c fc2a ad3f e2f3 2a8b b5cd c1bf
00000110: 1380 d6ef bca9 b1bf a11b 14fc de5c c73f
00000120: 612e 4d40 c425 c13f ac60 ca52 0c40 bfbf
00000130: e8e8 b9d6 85f4 cabf b795 72fd 13b8 d1bf
00000140: 5d72 0c6f 75c8 d5bf b1e4 3f32 75ef 9cbf
00000150: bac6 dde0 a704 d5bf ef04 d059 8ec7 c03f
00000160: b4d0 11a3 5206 c7bf 88c9 e1c6 8b83 d13f
00000170: 017b 96a7 f0fd bbbf dff9 d3f6 281a cbbf
00000180: 787b e70a 8e4a d73f 2497 7070 4893 cbbf
00000190: 1ef9 df8f 7f7c d43f 448d 5fea 78d2 d93f
000001a0: f355 9abb 2b99 8dbf 66f9 81d9 daa0 b1bf
000001b0: 0fe5 6738 13ad d3bf b564 8dd4 90b9 c53f
000001c0: 9bcb f23e 8565 bfbf ff4a 0e36 6bf2 b4bf
000001d0: c711 de6b 08a2 c6bf 6d40 90f5 cd0d 933f
000001e0: bacc 9777 383b 933f 97a7 fc30 8b77 cc3f
000001f0: 2caf a86f 0020 a0bf 7691 1848 7a5b b63f

rnn.weight_hh_l0 f8 [32, 32]
0.009431788921081817 -0.17409202556976489 -0.039772699090898415 -0.005713891734739015 0.1180632848421492 0.04991854629670187 -0.04302058091514278 0.1251391443490239
-0.13246481841086782 -0.019910213446322485 0.04046921047881043 -0.11367772187152919 -0.01525779233012894 0.15925207441348294 0.20600675390963585 -0.22391472010419045
0.019823020893179617 -0.1261590240394827 -0.049648050091619884 -0.03421191065388622 -0.048052753965686736 0.03746008892540652 0.14386117255056222 0.11781060337708155
0.04879834556816624 0.12868462284825352 -0.18883361236709104 -0.03870443572354141 0.06760412967018137 0.20867990934555022 -0.1351220748337746 0.11553563601211068
0.04357472747297447 -0.030850669864331628 -0.1878913541802055 0.05334949403775584 -0.02844265753345966 -0.16003807213559973 -0.1282043301948268 0.05701407045549836
0.1308650541156514 -0.10047578516958931 -0.05139974568760573 -0.1343998594268681 0.0897419860136449 0.0977862866510769 -0.08195357036672532 0.18280164849208244
0.1395254742952756 0.09467074576711627 0.008155076946271402 0.08370408678676548 -0.21739512616292653 0.09740227426450038 -0.12510454298747445 0.22728392814249435
0.04134237512918793 -0.14389499890715837 0.13266988921680525 -0.061331466779101805 0.17410345969036864 0.037286511843556365 0.1390154744367511 -0.12844238611069725
0.19303044022483878 0.10545450499387063 -0.050435459021425925 0.17798208548112704 0.20203392071454676 0.03282157757333099 -0.07513824407466008 -0.006266248192126504
0.03373316719347665 -0.01968160968945213 0.17177829607680928 -0.07464439306486599 -0.09498204516589448 -0.042704128893481595 0.0022251133104194826 -0.012935704776898807
-0.09300254969031205 0.04873024175717484 -0.11927439290067185 0.1615945959807795 -0.051238796891672676 0.2168151087227659 0.07822840461687192 -0.1439888340348016
-0.07430025795764109 0.14039673141357414 -0.05660785515010186 -0.1378868161814995 0.04861666513970372 -0.05535794348566176 0.1223595980153573 0.034896306121345054
0.06951335168580719 -0.1315893538581623 -0.021668186560668126 -0.05703665068334325 0.13016724967486165 -0.10342485499627595 0.03362880100675237 -0.10548861529525179
0.15630770402390087 0.10117019421307727 0.07250851169760208 0.10677060980132297 0.06160193890249305 -0.058735048918475224 0.13860378437467571 -0.01130347756172583
-0.174524319822133 0.08981930751299179 -0.260078317514948 0.05157285172237512 0.03602719187660153 -0.13807786633193644 -0.07732544866934554 0.030923547251693398
-0.05141954664644796 -0.22150393228922324 -0.14792315232883424 -0.045162842013441645 -0.18351465223172703 -0.01600271578178842 -0.010274955701732693 -0.12180593580919197
0.06253088769417127 -0.05085513057223931 -0.12292503842488597 0.0051506038722529245 -0.04002970610941917 0.14939476103755442 0.16388227678918074 0.1570982491978138
0.03422688279962091 0.15858338982072898 -0.021781697045481 -0.14831499801914333 -0.07153690221007658 -0.00561169759228477 0.17331663075814893 -0.19353908717965496
0.1276381548242397 -0.08301223600696407 -0.09598985666751389 0.11090462779805069 -0.016986788563188433 0.09216678202757837 -0.043996767057910426 0.014778433659663403
0.0408423499780484 0.04823902744691373 0.1548009566268792 -0.00887149386684038 -0.014273523682909574 0.07062735619901395 -0.12772312943896322 0.1015638287253037
0.15441201727420947 -0.01374176220354302 0.15863979947411677 0.14935457580299452 0.017611590092124107 -0.028106873163831713 0.04955568154591723 0.12692126273604706
0.08893586159900453 0.2165323133640768 0.09104017748803497 0.13740402978988345 -0.1003850956905109 0.17351075089921245 -0.008214198790581526 -0.19896059105149932
-0.12508594245304527 -0.13668887202247357 -0.15850434679670666 -0.046321500995461506 0.0020005109591074675 -0.016426876052719083 0.14877873178348874 -0.02212297289752562
-0.13151107248646574 0.13029844271864321 0.10425667334076927 0.07915393728694319 -0.15651766110521476 0.2094039881008111 0.05127952659825601 -0.04067120758654512
0.041879206522642265 -0.07892479183909999 -0.11927827910179861 -0.10401582848099163 0.22280526047419982 0.1704513955835361 -0.014412830784819478 0.08881802043980441
0.019408430089981353 0.18411063563813332 -0.07337357280980969 -0.03510399729445665 0.14982398258821072 0.22420753161718585 0.13357115960469426 -0.07988258301091224
0.09444039101514011 0.1147914795889321 0.017002393411908973 0.030441952708467286 0.10510689532417888 0.20073738770441157 0.058654529725981376 -0.09269398130372854
-0.1579547847158222 -0.08221512125557073 -0.07476806222135636 -0.11181158015011343 -0.06539817043909323 0.06329064630913236 -0.10049094779008268 0.18187280761398003
0.01819809535111666 -0.17831211659788765 0.10616693528660573 0.09345151021831562 0.09315354017807344 0.04954118235744164 -0.10348455685782418 -0.139490041852143
-0.09024088774869297 0.11119608519800336 -0.06031196083926159 -0.15492838486645436 -0.09765694725258633 0.14483653330224514 0.12242116943345155 0.03989792069096041
-0.05149172607407017 0.11900083660012495 -0.1551348381748079 -0.04986801525080209 0.08338681016670259 0.02455319997016927 -0.10609862461554545 -0.13845965752360093
-0.005588102695234023 0.024788214009442287 0.16211077958074577 0.180404611175028 0.033379451534765264 -0.0931572786634747 0.004891821445531375 0.13663201079917311
00000000: 9faa ab47 f950 833f 4084 28c2 a548 c6bf
00000010: 1ff5 bc53 165d a4bf fc2d 2322 7367 77bf
00000020: 7e5f 413b 6539 be3f edcb 9d77 ec8e a93f
00000030: 69c1 2b28 cb06 a6bf 76d8 363a 8f04 c03f
00000040: 26fe 786f 9bf4 c0bf 3fef 6ece 5763 94bf
00000050: 9abb 005f 61b8 a43f 1cd5 b8b1 fb19 bdbf
00000060: 8e58 8938 7a3f 8fbf 6289 b639 5f62 c43f
00000070: 4c04 66e7 6d5e ca3f 0862 f8cf 3ca9 ccbf
00000080: 52ca c669 7c4c 943f 3e24 2c99 fa25 c0bf
00000090: 6148 e81e 786b a9bf 56c3 c83a 3984 a1bf
000000a0: 1ddd 87dd 5e9a a8bf ce03 ae01 f82d a33f
000000b0: 956a a2fb 0a6a c23f 5c68 a0f0 d528 be3f
000000c0: 46dc a0c4 18fc a83f dbcf 50db bc78 c03f
000000d0: ff47 c026 b32b c8bf cd15 495b 11d1 a3bf
000000e0: 780a 0216 814e b13f 4756 fcf4 05b6 ca3f
000000f0: 1d7a 301e ae4b c1bf afcf 3152 be93 bd3f
00000100: 5869 db3a 6d4f a63f 870b 8268 5197 9fbf
00000110: 7bdb b3ea d20c c8bf 36f5 4cf8 9f50 ab3f
00000120: e48e ab6f 1220 9dbf 1cf9 f7a6 207c c4bf
00000130: 1039 b2de ff68 c0bf 3452 09c0 f230 ad3f
00000140: dcd8 cea3 2fc0 c03f 07e3 57f3 c7b8 b9bf
00000150: ee80 8045 1151 aabf 92a6 69bc 0334 c1bf
00000160: b7b6 01af 54f9 b63f 67e5 29a7 8508 b93f
00000170: 1ef9 83c0 e8fa b4bf 37d5 f65e 0b66 c73f
00000180: f74e 8782 f8db c13f 7d2b f58c 573c b83f
00000190: ceaa 3ee6 9bb3 803f 8b6b 4a8b a16d b53f
000001a0: effb 967e 9ad3 cbbf 2ca5 85fe 5aef b83f
000001b0: 512a 5bf8 6c03 c0bf 81a3 23c7 a317 cd3f
000001c0: c1d6 3cea d32a a53f 239e 2ebd 266b c2bf
000001d0: c9d0 acb1 53fb c03f 1b5c 1088 d666 afbf
000001e0: 93cb beac 0549 c63f 4165 e6b9 3717 a33f
000001f0: a800 2c52 42cb c13f cc00 e2d3 cc70 c0bf
00000200: 16f7 f2b1 38b5 c83f 7e1f 2a02 11ff ba3f
00000210: 378e 1c2e add2 a9bf 1c29 35f2 1dc8 c63f
00000220: c968 135d 3fdc c93f a9a8 8f64 fdcd a03f
00000230: 88c2 fa8c 423c b3bf f85f dc30 a3aa 79bf
00000240: 03e1 c543 7945 a13f 0a9b cb77 6a27 94bf
00000250: 0800 e8c9 d4fc c53f 351a 0b1b e51b b3bf
00000260: a0d8 b149 be50 b8bf 2bdb 00ca 50dd a5bf
00000270: a09c bd9c 663a 623f 1b6c bde7 087e 8abf
00000280: 3650 5ddd 03cf b7bf d9b2 5895 2bf3 a83f
00000290: 3e36 c240 c488 bebf e350 79b8 21af c43f
000002a0: 334b dfb9 f83b aabf 7119 9ff4 98c0 cb3f
000002b0: cc9d 72d7 c606 b43f 2596 95e2 396e c2bf
000002c0: c22e 037a 5705 b3bf 017c f124 85f8 c13f
000002d0: 38fe 216d b4fb acbf 0a49 0673 46a6 c1bf
000002e0: bb97 a195 48e4 a83f e980 b059 e057 acbf
000002f0: ede1 d367 f552 bf3f 0bb3 15bb eddd a13f
00000300: 383a 2084 a0cb b13f 414a a981 ebd7 c0bf
00000310: d718 9162 2f30 96bf ba77 b76a e833 adbf
00000320: ea90 2e08 52a9 c03f bf73 cd21 0d7a babf
00000330: d12d 0e51 cb37 a13f 591e cb48 4d01 bbbf
00000340: ce9f 720e e401 c43f 78a2 7933 4ae6 b93f
00000350: e03e 6cf6 ea8f b23f ec49 4595 5155 bb3f
00000360: f8ac e911 4a8a af3f 1cb6 7734 8512 aebf
00000370: 51db 7ed0 c4bd c13f 9b61 ab13 4726 87bf
00000380: fc10 ff1a d056 c6bf 9d52 51ec 65fe b63f
00000390: a506 0887 1fa5 d0bf 4ea3 04bf c167 aa3f
000003a0: 80e1 c0f5 2772 a23f 713b 1918 89ac c1bf
000003b0: 10f1 2ec1 99cb b3bf 1445 7d20 6caa 9f3f
000003c0: dc7a 71ae a953 aabf eb0d 8fa8 3d5a ccbf
000003d0: b86a c956 25ef c2bf 0c61 e282 951f a7bf
000003e0: c006 d67a 687d c7bf 9248 b813 0463 90bf
000003f0: db81 a735 090b 85bf f857 c27e ac2e bfbf
00000400: 81e5 a235 0602 b03f dc7c 4805 af09 aabf
00000410: 46f9 e4eb 0378 bfbf 4ec3 f9b2 cc18 753f
00000420: 5586 370d c67e a4bf d3cd 6c16 5e1f c33f
00000430: f70d 9a2d 18fa c43f bc1f 48a1 cb1b c43f
00000440: 4c6b 899c 2f86 a13f 4903 7ce4 754c c43f
00000450: 51cd d8f1 f04d 96bf aecf ff60 fcfb c2bf
00000460: c80d 730f 3e50 b2bf 9a79 249a 4afc 76bf
00000470: abc5 7a46 3d2f c63f 8097 f788 e3c5 c8bf
00000480: fd8f 5872 7256 c03f b157 d136 4a40 b5bf
00000490: ae7b 228f ca92 b8bf 4a20 5ee5 3e64 bc3f
000004a0: 3531 5f15 fc64 91bf bb04 9602 3e98 b73f
000004b0: fd72 4987 be86 a6bf d9ed 08ca 2744 8e3f
000004c0: 451f e5da 49e9 a43f 7af9 8c2a c9b2 a83f
000004d0: 0c0d 0d8b 84d0 c33f fdac 32c0 372b 82bf
000004e0: c18f 55eb 6f3b 8dbf a8e4 1369 a214 b23f
000004f0: 230a f143 3b59 c0bf eaeb d44a 1600 ba3f
00000500: c3ab 26e2 c5c3 c33f 286d 071a a424 8cbf
00000510: 14ec 4a17 4f4e c43f e578 4afd 0c1e c33f
00000520: 03a9 e7cd c508 923f 933b 2054 0cc8 9cbf
00000530: 7a33 24bf 5c5f a93f f325 4fb8 f43e c03f
00000540: ed61 0229 80c4 b63f fe84 36b2 54b7 cb3f
00000550: a2e2 eeb8 684e b73f dda0 248b 7496 c13f
00000560: 881f ff6e d6b2 b9bf 21ea 4eac 9935 c63f
00000570: 12dd 5819 9bd2 80bf 9027 e167 8a77 c9bf
00000580: b038 03f0 d002 c0bf cb25 885d 057f c1bf
00000590: 6002 e2d4 de49 c4bf 5018 c1a7 73b7 a7bf
000005a0: f805 a124 6063 603f bfff affd 34d2 90bf
000005b0: 37db ac75 2e0b c33f fe35 5794 67a7 96bf
000005c0: ab14 b2d5 5ad5 c0bf 6c20 198f 9ead c03f
000005d0: 806b 63ba 90b0 ba3f 0f3f ffb3 6e43 b43f
000005e0: 56be d84d c508 c4bf 25c1 45f8 bfcd ca3f
000005f0: 2743 6363 4f41 aa3f 1632 f244 dbd2 a4bf
00000600: f85a cbfc 3071 a53f 0be4 ca47 6a34 b4bf
00000610: e489 dd73 0589 bebf b59a 9705 c8a0 babf
00000620: 8585 8efd e184 cc3f 525f cbf0 59d1 c53f
00000630: 829d e866 7984 8dbf 849c 151d c7bc b63f
00000640: 963f 03b2 cddf 933f d3ad 74f3 ef90 c73f
00000650: ceda 9b47 9cc8 b2bf 3c58 adb0 26f9 a1bf
00000660: 2cb9 afa8 6e2d c33f 8706 e817 d5b2 cc3f
00000670: 5171 1819 dc18 c13f 9147 8d59 2f73 b4bf
00000680: cfdb d4d6 3e2d b83f 68a4 b172 f962 bd3f
00000690: f5a9 a14e 1369 913f e2aa 3cdd 2c2c 9f3f
000006a0: 9c5e 0016 49e8 ba3f 9630 a341 c3b1 c93f
000006b0: 2de6 de6d f707 ae3f f94c 3cf2 caba b7bf
000006c0: 5ef3 4cc5 dc37 c4bf 8883 07d9 0c0c b5bf
000006d0: 29a9 06ee ff23 b3bf d30e 0f08 af9f bcbf
000006e0: 470f 413b efbd b0bf 6659 0ad8 d033 b03f
000006f0: 456d 4d56 c6b9 b9bf 53eb 5db0 9b47 c73f
00000700: 70b7 8781 85a2 923f 1a5d a272 eed2 c6bf
00000710: 12f7 f89a c12d bb3f 0544 262c 70ec b73f
00000720: 614a 9210 e9d8 b73f 7f8e 0f3c 765d a93f
00000730: 9e6c 58c3 f67d babf 31b2 ef47 cfda c1bf
00000740: 4784 a4dd 061a b7bf 1e60 5ebd 5877 bc3f
00000750: 4e7a b996 35e1 aebf 659c 1c7d b1d4 c3bf
00000760: 8053 adb2 0b00 b9bf cd4a e6e6 008a c23f
00000770: 0c04 0e67 fe56 bf3f 5d97 1711 806d a43f
00000780: c264 019f 1f5d aabf c0e8 64bd d676 be3f
00000790: b82c 3758 75db c3bf 50bc 3ced 4c88 a9bf
000007a0: 8170 9586 d658 b53f e63d 895b 7924 993f
000007b0: 4ad5 df8a 4729 bbbf 7d8a 70ca 0bb9 c1bf
000007c0: 03dc 29e5 8ce3 76bf 19ba fce1 1462 993f
000007d0: 5a6e 50c8 0bc0 c43f fbac 8590 7f17 c73f
000007e0: 0c85 6689 1c17 a13f a275 3ec9 27d9 b7bf
000007f0: 1ada 0552 7209 743f ad0d fc60 287d c13f

rnn.bias_ih_l0 f8 [32]
-0.03737123778314652 0.11171995682248614 0.013820520928586648 0.15867654924526797 0.028215604443320122 -0.10985272052069661 0.09242514772795199 -0.11347309006549788
0.01934793986539686 -0.009442117669612993 0.22258368423045125 -0.14147118350456298 0.12906733455418176 -0.020007405408496694 0.057713308427363746 0.03171829029143023
0.052332528656190196 0.016797765520845373 0.050003819770706295 0.07264509811733086 -0.13326939492096374 0.18424457671026062 0.06826792634100258 0.24399152592092338
-0.1608989784406549 -0.28630283870674456 -0.11804013263243648 -0.020196235812558864 -0.15882016733656149 -0.03450095143624035 0.18638020102059236 -0.0432256391652766
00000000: 1ce7 2da8 5222 a3bf c8f4 dcd8 ad99 bc3f
00000010: 7c38 37eb ee4d 8c3f 8845 d35e 834f c43f
00000020: 74a2 4829 8de4 9c3f 4855 03d2 4e1f bcbf
00000030: 3acc d1aa 2ca9 b73f 30b0 ce8a 920c bdbf
00000040: 040f de43 f2cf 933f ba8c c494 6356 83bf
00000050: 234d 3246 9f7d cc3f e73f 3d4d ba1b c2bf
00000060: 6130 7246 4785 c03f 0a15 a13f d27c 94bf
00000070: 3c9e 7a48 998c ad3f 4d34 f936 613d a03f
00000080: bfcd 3046 54cb aa3f 0c4c 3bf6 6e33 913f
00000090: ca36 2ec5 199a a93f 06ef a080 de98 b23f
000000a0: be22 5fb6 f80e c1bf a4cc b787 5395 c73f
000000b0: 7b16 00bf 017a b13f aa6e 2a44 1d3b cf3f
000000c0: d763 2e75 5698 c4bf e8d5 3f24 c952 d2bf
000000d0: ce95 45cd e037 bebf b1db 4471 52ae 94bf
000000e0: 91f0 5320 3854 c4bf 74f6 32d4 1baa a1bf
000000f0: 4faf 0072 4edb c73f e78a 20c5 ab21 a6bf

rnn.bias_hh_l0 f8 [32]
-0.10402848294229576 0.21245705170163665 0.07239025025674198 0.15180940871372806 0.050190719384917065 0.12342555401543627 -0.009425332113280338 0.15287881837986023
0.18924904264669248 0.23800790621992798 0.04791389694273913 -0.17660963406751684 0.10789341034649429 0.007151830963020503 -0.13684397092100992 0.10462402447283416
-0.20587126093559927 0.0841079572117673 0.24208641857613447 0.012482874241808238 -0.014735873030323712 0.15998909236768555 0.10379680967897713 0.09550242319970853
-0.07388445231188623 -0.29755754419542635 0.037090738007841635 0.07829686340008785 -0.1496455372906706 0.08866561714104917 -0.09475365187848198 0.06642112821257684
00000000: 93f3 1654 9ca1 babf 687a 6eec ca31 cb3f
00000010: 02e7 66dd 2a88 b23f 8845 d39e 7d6e c33f
00000020: 3451 a414 99b2 a93f bdaa fc2d d198 bf3f
00000030: 409e 71a9 964d 83bf e2a7 987a 8891 c33f
00000040: dbc1 7b08 5039 c83f 1db7 b306 0b77 ce3f
00000050: 8934 c998 2b88 a83f e43f 3dfd 249b c6bf
00000060: bb60 e40c e79e bb3f eaab 7b01 3d4b 7d3f
00000070: 7a58 e16d 1a84 c1bf 199a 7cdb a3c8 ba3f
00000080: 98cc 734e fd59 cabf 0dd3 8e5d 1988 b53f
00000090: c98d 4b11 b0fc ce3f 2c78 0705 9f90 893f
000000a0: 682c f265 d72d 8ebf a4cc b7c7 857a c43f
000000b0: 7b16 007f 6d92 ba3f 2cdd 54c8 d872 b83f
000000c0: c0c7 5c6a 17ea b2bf e8d5 3fcc 2e0b d3bf
000000d0: 89d4 74a5 8efd a23f 24c9 ae63 430b b43f
000000e0: 8ef0 53c0 9527 c3bf c284 e635 cab2 b63f
000000f0: 52a1 fe7b c641 b8bf 90ba 6f9d f900 b13f

linear.weight f8 [32, 32]
-0.055949388027396615 0.3150587429055576 -0.2672246370099321 -0.5015286896267698 -0.02703639955166681 -0.14531701227127397 -0.2704249395361132 -0.033207832956234695
0.2426063865382769 -0.16840573814872103 0.12935364444373754 0.04502886552661727 -0.005136093201400787 -0.14805008335956532 -0.38205361971156837 -0.018723769937340155
-0.13593620021125824 -0.518617153191954 0.3365347283350057 0.3262185541742993 -0.0554669474230984 -0.1300552227069702 -0.31411826835549805 0.23214502632372977
0.306176212466628 0.0029631641773890083 -0.14321025878411758 -0.06950534240842376 -0.11048097785234799 -0.0230651612253773 -0.2582558432013272 0.0510923031475093
-0.0953188521643381 0.31107090811467336 -0.17512694844753746 -0.22258897941944233 -0.047959391156255686 -0.11024618624310561 -0.28389164448495835 0.00013236017361849313
0.14223579463792446 -0.21702972384224561 0.04156420194596095 -0.060966224286983665 -0.03190388157199863 -0.3030545652369708 -0.10192912615184987 0.03482883378446743
-0.0336460714155064 -0.34951585043097877 0.0697264836216098 -0.08415738203825537 0.019404432480632526 -0.24563665659000772 -0.19203205811657756 0.22913862409464514
-0.0723422994401973 0.10569578193431427 -0.1121505063472494 -0.07018969792816454 -0.13887444044590513 -0.24285278605140512 -0.12419225957814342 -0.1006467314873242
0.10549201826913249 0.005061062631838167 0.16652873135883658 -0.19020685651113636 0.15262084110363333 -0.00920148633559044 0.02012065744224781 0.09858834744336771
-0.09299753041323786 0.10268709148310387 -0.22831300973412946 0.1081158324874623 0.022356256463281737 -0.04034337231022523 0.07281125821186656 -0.2615389839774509
-0.14764564357043375 -0.012100800223497467 0.1618076107785346 -0.13179065733162568 -0.11733988439557694 0.0745549304405977 -0.16375424756196807 0.06761108141571873
0.006283504391073914 0.01768599116223324 -0.047614171925160716 -0.02072494537086939 -0.14716197530439099 0.04225228669698801 -0.1433520839560643 0.03780448172659155
0.020153856452228187 0.05241468913872717 0.05861963422677843 0.06604806956935674 -0.10444738675092935 0.08060632627252544 0.09270565783394633 -0.18159936285158387
-0.10515508474113952 0.1552792833228204 0.012101380331885146 -0.11806092547305312 0.20371628943523615 0.0033088756029069793 -0.02892755747679815 -0.16684889864534763
-0.08148501535165695 0.13756769915409614 0.10598529024284173 -0.18599599638979744 0.003696365290686001 -0.09489839395039729 0.03516637573420291 -0.14331197986090793
-0.06406955408762009 -0.10144775050382218 -0.02746502282876604 0.024090073084340073 -0.13974160973257765 0.08403625630956839 -0.1839839371627687 0.09432372237121302
-0.1836577886181326 -0.25636817705940573 -0.11548293327894985 -0.10251926855017574 -0.16571217469467234 0.032262041740033186 0.036728661171611 0.09799738853928551
-0.11645989534545124 0.08373242035880958 0.09362771128374259 -0.0038743944255740354 -0.0027207327445156132 0.14313046236340665 0.0965061674642515 -0.06823480127608757
0.0550401088428189 0.06565264120288347 -0.005706739450738374 0.03510072301233209 0.032306937666666945 -0.15709143873893713 0.12429054858028572 -0.019049539955157017
0.02116338261324881 0.015043000655804587 0.08836767460437422 0.09222782844919732 -0.07101271020273 -0.054982430135221735 0.06994186698195005 0.13663992819005452
-0.06968969520945321 0.07002657166293673 0.020939496244291488 -0.12995794336137417 -0.01056748194841579 0.12350921347696156 -0.11433578212112853 -0.005028373913567203
-0.197068851214182 0.15507946170435585 0.029268890184619503 -0.16228230398554438 -0.012655188482711868 0.015088614490629601 -0.05448012919121837 -0.27097595152153314
0.03744795696681106 -0.044964359044080554 0.11303157296885312 0.08881460181539252 -0.00010224492914835882 0.14579170707615 0.053485875188581326 -0.07693900795858902
-0.053911878078984496 -0.08165085297313314 0.059859293529764844 -0.04945649032593191 -0.1602955447124596 0.13098737740325161 -0.059185191159608304 0.06672542089279156
-0.1442199963307092 -0.02854478986621127 -0.07914126177876289 -0.4622825495924283 -0.27209147027864583 -0.18281752853379366 -0.020200301944995405 -0.030846612420106626
-0.0475303510578378 0.004413294287170343 0.07431865602361484 -0.016777834044788265 -0.01175466665089344 -0.344817016261064 -0.2540615710778065 -0.020606130000010065
0.061205931674309086 -0.2919877735097128 0.3042335422265776 -0.03991906065536033 0.040398675371287496 -0.2122013440991206 -0.17340646339326493 0.3395867006015734
0.2686834156220813 0.12747502133179858 0.005815653072969207 -0.05154985335680457 0.017775561862982583 -0.06542832880461624 -0.3586862871977164 -0.04391559726983209
0.21103836244318463 -0.10273084989224535 0.01797147369404374 0.07474583050290136 0.00606719782419221 0.19587405876957065 -0.1043885707597685 -0.059259754810405595
0.0941129364802944 0.03313383045191823 -0.16818184671042785 0.03399438715944608 0.22099251081033883 -0.08582688219689313 0.16075675674831155 -0.009388822700994344
0.11090147087860718 -0.06810341001582818 0.03450275728062357 -0.0519647552330649 0.15745564172578588 0.12669107657662818 -0.11006164651810826 -0.16763359568063702
0.25261125419438923 -0.22497289130962284 -0.18157513506851988 0.01600768654705497 0.015349812881043853 -0.03243106418888595 -0.11046794908128996 -0.05662560511706095
00000000: d625 9eef 65a5 acbf 9849 4625 ec29 d43f
00000010: 0929 295d 351a d1bf 9b7c fee4 850c e0bf
00000020: 9f05 810f 6eaf 9bbf 7af7 a073 bf99 c2bf
00000030: 0125 d567 a44e d1bf 083f 09f9 9d00 a1bf
00000040: f3c6 fddf b90d cf3f 0b5c e7b8 518e c5bf
00000050: c08b 4004 a98e c03f b727 a001 060e a73f
00000060: b980 4485 9509 75bf 2a86 191d 4ef3 c2bf
00000070: e2b1 7e06 9173 d8bf 01a2 27ee 522c 93bf
00000080: 7efb 1f7f 5b66 c1bf 7f54 0300 8398 e0bf
00000090: abb1 0af5 c889 d53f b1ba 61c9 c3e0 d43f
000000a0: 9bdf 61ea 2966 acbf cfa7 1948 a6a5 c0bf
000000b0: da6e 6a82 831a d4bf 3ba7 fe9f edb6 cd3f
000000c0: 3fde d61c 6498 d33f 7b8d 81a7 3446 683f
000000d0: 42f9 f6b8 b654 c2bf 409d 8a24 1acb b1bf
000000e0: 27b8 b43a 7b48 bcbf 6852 8fc4 649e 97bf
000000f0: 1a3d 2384 4387 d0bf ea15 3136 c528 aa3f
00000100: 87f3 bcf8 d066 b8bf 13bb 45f4 95e8 d33f
00000110: 6e7f 1d52 8f6a c6bf 1c3c 87b1 cb7d ccbf
00000120: 9fb8 1a21 228e a8bf cc40 6c14 1839 bcbf
00000130: 5fea 2adc 472b d2bf 135e e53b 4559 213f
00000140: b82d 2553 c834 c23f 18c8 1447 a1c7 cbbf
00000150: b9a0 1530 e747 a53f b746 f206 f736 afbf
00000160: af33 ef9f b455 a0bf 9529 a6f9 3e65 d3bf
00000170: 7601 55f7 0618 babf 8fcc 1fbc 15d5 a13f
00000180: 77a9 bcd0 0e3a a1bf 3838 c2ba 775e d6bf
00000190: 8ee4 d146 98d9 b13f b63f 9293 568b b5bf
000001a0: 2666 9b6b c1de 933f ea5d 609f 0571 cfbf
000001b0: 8177 b2a8 8194 c8bf 0054 5e18 6a54 cd3f
000001c0: d68c 3662 0685 b2bf afa7 bbf6 e00e bb3f
000001d0: 4ec4 fd44 e5b5 bcbf 181a 1eb9 f3f7 b1bf
000001e0: 4494 fb3d a3c6 c1bf 97a8 ead2 cc15 cfbf
000001f0: aaf1 4d5d 10cb bfbf 3af6 2ff4 fbc3 b9bf
00000200: 2a78 7460 8601 bb3f 1cbd c9a7 e8ba 743f
00000210: cfe9 833f d050 c53f 995b 18c2 b258 c8bf
00000220: f632 9d68 1489 c33f e86d 1697 3ad8 82bf
00000230: 29ff c076 829a 943f fd33 0900 163d b93f
00000240: a6ce bba7 afce b7bf aa2b a483 b349 ba3f
00000250: ef9a 0757 5c39 cdbf a3a5 b6ac 7aad bb3f
00000260: b8ae 7bf9 8ee4 963f f193 5df1 e2a7 a4bf
00000270: b3f2 cc34 c2a3 b23f 68fb b301 0ebd d0bf
00000280: d414 446d 0de6 c2bf 010a b9e9 4dc8 88bf
00000290: 75d3 449e 1cb6 c43f b12e 9429 84de c0bf
000002a0: 16d4 fe95 fc09 bebf d177 ff2b 0816 b33f
000002b0: fb0b ee30 e6f5 c4bf b217 87b7 f54e b13f
000002c0: 5bad d25d bbbc 793f e079 8ec6 461c 923f
000002d0: 9147 7d7e e260 a8bf 512c 518a eb38 95bf
000002e0: cbd4 921f 34d6 c2bf 52ed 167b 17a2 a53f
000002f0: 9ace 3370 5c59 c2bf 8edd 50e9 1b5b a33f
00000300: 5503 6769 36a3 943f 0297 5c1f 19d6 aa3f
00000310: 44a3 d087 6403 ae3f 7aaa c3ba 86e8 b03f
00000320: b876 3f5e 10bd babf a3f2 30bf 9da2 b43f
00000330: 160c 8dd8 8ebb b73f c503 36de a53e c7bf
00000340: 4ea7 f891 71eb babf 1d15 cf09 31e0 c33f
00000350: 4c61 18c6 9bc8 883f 1f9e d7a5 3d39 bebf
00000360: 2db6 6418 6013 ca3f 6556 0810 371b 6b3f
00000370: b097 4385 2f9f 9dbf ea16 8701 4e5b c5bf
00000380: 16a7 0cb4 33dc b4bf df28 6d80 d19b c13f
00000390: fe37 731b da21 bb3f bf2e d780 b7ce c7bf
000003a0: 6bbd 3301 d747 6e3f bcba 75da 424b b8bf
000003b0: e3fd 64c3 5301 a23f 8855 5005 0c58 c2bf
000003c0: fbc2 79bf dc66 b0bf caab aad2 7af8 b9bf
000003d0: 3a72 557b ca1f 9cbf 7ed2 3870 11ab 983f
000003e0: 708d d895 0de3 c1bf 7b22 876c 6683 b53f
000003f0: 8f3c 8d20 c98c c7bf 9143 d276 9925 b83f
00000400: baa1 e231 1982 c7bf 6423 0d12 5668 d0bf
00000410: a6e2 ad1d 4a90 bdbf 3402 a2e9 b33e babf
00000420: 876b 6e79 0e36 c5bf 1bec 597c a684 a03f
00000430: 90a9 1d5d 19ce a23f 7fa0 de5a 5b16 b93f
00000440: 53e6 cdd1 50d0 bdbf c956 0ee7 7c6f b53f
00000450: 7887 f655 fcf7 b73f 1b4b 30ab 31bd 6fbf
00000460: 724e 1545 ca49 66bf a8c2 7457 1952 c23f
00000470: dc0a 1fd1 a0b4 b83f fd0a eeff d577 b1bf
00000480: d878 e596 372e ac3f aec6 dc8a 9cce b03f
00000490: da65 ec34 f35f 77bf b9ce ced2 b8f8 a13f
000004a0: 63ab 6cf1 888a a03f e3c2 ee7f 921b c4bf
000004b0: 95ae 5a61 81d1 bf3f 21ea 71fc b881 93bf
000004c0: a55b c990 daab 953f d597 cd5e ddce 8e3f
000004d0: 1009 7390 439f b63f 316c f832 3e9c b73f
000004e0: fec9 eb93 e32d b2bf 9e1d 9236 a826 acbf
000004f0: 3104 4fcf b5e7 b13f a7b8 73cb 6a7d c13f
00000500: 8ff5 ca11 2fd7 b1bf 33b0 24eb 42ed b13f
00000510: 437b 41ce 2971 953f c6d7 4b3e 76a2 c0bf
00000520: e6c4 f46a 67a4 85bf 3263 a3c0 4c9e bf3f
00000530: 4b0b f91c 1c45 bdbf c75c 2cd8 a198 74bf
00000540: ce39 8357 8d39 c9bf 5197 26d0 a4d9 c33f
00000550: 175a 88f8 a9f8 9d3f 5a31 2ba2 aac5 c4bf
00000560: 4882 43a5 f6ea 89bf 45d0 3b8e c7e6 8e3f
00000570: 71f7 50ca d1e4 abbf d965 7284 ab57 d1bf
00000580: 95ed f2ec 602c a33f 4cec 2887 9105 a7bf
00000590: bf10 511d a3ef bc3f cc51 34c2 8dbc b63f
000005a0: 9444 eb81 8acd 1abf 0dc5 f57a 4da9 c23f
000005b0: f73d 7729 8062 ab3f d204 f85a 46b2 b3bf
000005c0: c62b 6e72 569a abbf d9c9 35ff 11e7 b4bf
000005d0: c3dd 2498 e0a5 ae3f f0b4 0c71 5c52 a9bf
000005e0: be04 1e7d 9084 c4bf 1461 11c3 31c4 c03f
000005f0: f144 e078 854d aebf 39df 8bcc ea14 b13f
00000600: a2b6 d503 cd75 c2bf 8c49 c96b d83a 9dbf
00000610: 379d 1a0b 9a42 b4bf dcb3 008c 0996 ddbf
00000620: 7f82 9757 f269 d1bf a116 1895 9066 c7bf
00000630: 346f e450 63af 94bf 94a0 251e 4196 9fbf
00000640: 66bc b8ee e555 a8bf b2a8 18aa ac13 723f
00000650: 3ea6 1a25 8c06 b33f 1d90 1462 352e 91bf
00000660: 0c4e baa6 d412 88bf 3884 fc63 7b11 d6bf
00000670: 91c5 bc76 8b42 d0bf 55e6 c9f9 c519 95bf
00000680: 4e88 b945 6256 af3f ad96 837c edaf d2bf
00000690: 9466 8df6 8f78 d33f a0ed 0068 4570 a4bf
000006a0: 00f5 0a9b 22af a43f ef56 89e4 6929 cbbf
000006b0: 3c34 98d8 2e32 c6bf 1961 4fdb c9bb d53f
000006c0: 36c3 c4ec 1b32 d13f 31a7 d6fb 1951 c03f
000006d0: 3374 0d7c 27d2 773f 99e8 8f0c be64 aabf
000006e0: 6467 7ac3 c133 923f 80a0 7234 e9bf b0bf
000006f0: 396c 4254 b7f4 d6bf 12d1 1dec 1a7c a6bf
00000700: 308b 7218 4e03 cb3f a8d5 93a8 914c babf
00000710: 847c 1b2f 1d67 923f cdb6 85f1 8a22 b33f
00000720: 1f77 bb03 ebd9 783f 4869 46b2 6612 c93f
00000730: 8148 7d99 35b9 babf 3364 c269 4b57 aebf
00000740: 503a 5010 c917 b83f 0449 5ddc eaf6 a03f
00000750: 667a b395 fb86 c5bf 38dc 315a b667 a13f
00000760: c2b0 4b8b 7b49 cc3f b63e 2724 c0f8 b5bf
00000770: cb29 6c6a ad93 c43f e4f6 9673 723a 83bf
00000780: 737d 80ee 0964 bc3f 7e99 c39e 396f b1bf
00000790: dfc1 486c 58aa a13f c493 8ad8 1f9b aabf
000007a0: 7d37 e4a7 8127 c43f 2dbb 4bc7 6937 c03f
000007b0: fad4 5604 002d bcbf 6a61 9485 0475 c5bf
000007c0: d473 d764 c82a d03f 84a8 5465 e9cb ccbf
000007d0: ed6a 71a1 da3d c7bf 1e1f d1a8 5164 903f
000007e0: f825 9702 b96f 8f3f eda8 21f0 cd9a a0bf
000007f0: 0672 8fa4 a047 bcbf 111f 3004 08fe acbf

linear.bias f8 [32]
-0.067732952536182 -0.10995645076078775 0.17388783395280377 0.09696264564982068 0.021783411502710875 0.06782771646983467 -0.06346957385439699 0.13238351047040817
0.17586626112462012 0.1306651979689568 0.1325433403242509 -0.043351873753442995 -0.0345949530601701 0.07509772479539746 0.08217386901443414 0.07474212348462231
0.14038218557901586 0.14476303756140882 0.049829885363649754 0.13174252211755388 -0.057196095585181565 -0.052128635347638584 0.012742951512337583 0.1435456424951503
0.11725459992887495 0.053630068897718285 0.019527062773945603 -0.1762777715922537 0.11037860810942932 -0.05323142558482629 -0.025872215628610855 -0.0024006068699247113
00000000: cc21 0160 f256 b1bf 2077 0020 1b26 bcbf
00000010: eef1 ffdf f441 c63f dee6 ff3f 8bd2 b83f
00000020: b870 ffff 634e 963f b113 0040 285d b13f
00000030: a7e5 febf 8a3f b0bf 8302 0060 f1f1 c03f
00000040: 4c01 0020 c982 c63f af42 0020 a3b9 c03f
00000050: 8a64 ff1f 2ef7 c03f 5593 fb7f 3732 a6bf
00000060: 3c0b 0000 6eb6 a1bf c10f 00c0 9a39 b33f
00000070: 59b6 00c0 5809 b53f 0a03 00c0 4c22 b33f
00000080: 3d5e 0020 0bf8 c13f af78 ff5f 9887 c23f
00000090: f227 0080 4d83 a93f c864 fe5f f0dc c03f
000000a0: df96 fe7f ce48 adbf b3a5 01c0 9ab0 aabf
000000b0: eb01 0000 fa18 8a3f 4bff ff1f b45f c23f
000000c0: 5d05 00c0 6504 be3f 43f0 fe7f 6675 ab3f
000000d0: 6d0f 0100 e7fe 933f f90f 0020 4590 c6bf
000000e0: 3e0c 02c0 c541 bc3f ff37 0340 2641 abbf
000000f0: 3ef1 ffff 3e7e 9abf f76f e6ff 6faa 63bf
